<?xml version="1.0"?>
<net name="main_graph" version="11">
	<layers>
		<layer id="0" name="images" type="Parameter" version="opset1">
			<data shape="1,3,640,640" element_type="f32" />
			<rt_info>
				<attribute name="old_api_map_element_type" version="0" value="f16" />
			</rt_info>
			<output>
				<port id="0" precision="FP32" names="images">
					<dim>1</dim>
					<dim>3</dim>
					<dim>640</dim>
					<dim>640</dim>
				</port>
			</output>
		</layer>
		<layer id="1" name="/model.22/Constant_9_output_0_compressed" type="Const" version="opset1">
			<data element_type="f16" shape="1, 2, 8400" offset="0" size="33600" />
			<output>
				<port id="0" precision="FP16">
					<dim>1</dim>
					<dim>2</dim>
					<dim>8400</dim>
				</port>
			</output>
		</layer>
		<layer id="2" name="/model.22/Constant_9_output_0" type="Convert" version="opset1">
			<data destination_type="f32" />
			<rt_info>
				<attribute name="decompression" version="0" />
			</rt_info>
			<input>
				<port id="0" precision="FP16">
					<dim>1</dim>
					<dim>2</dim>
					<dim>8400</dim>
				</port>
			</input>
			<output>
				<port id="1" precision="FP32" names="/model.22/Constant_9_output_0">
					<dim>1</dim>
					<dim>2</dim>
					<dim>8400</dim>
				</port>
			</output>
		</layer>
		<layer id="3" name="model.0.conv.weight_compressed" type="Const" version="opset1">
			<data element_type="f16" shape="48, 3, 3, 3" offset="33600" size="2592" />
			<output>
				<port id="0" precision="FP16">
					<dim>48</dim>
					<dim>3</dim>
					<dim>3</dim>
					<dim>3</dim>
				</port>
			</output>
		</layer>
		<layer id="4" name="model.0.conv.weight" type="Convert" version="opset1">
			<data destination_type="f32" />
			<rt_info>
				<attribute name="decompression" version="0" />
			</rt_info>
			<input>
				<port id="0" precision="FP16">
					<dim>48</dim>
					<dim>3</dim>
					<dim>3</dim>
					<dim>3</dim>
				</port>
			</input>
			<output>
				<port id="1" precision="FP32" names="model.0.conv.weight">
					<dim>48</dim>
					<dim>3</dim>
					<dim>3</dim>
					<dim>3</dim>
				</port>
			</output>
		</layer>
		<layer id="5" name="/model.0/conv/Conv/WithoutBiases" type="Convolution" version="opset1">
			<data strides="2, 2" dilations="1, 1" pads_begin="1, 1" pads_end="1, 1" auto_pad="explicit" />
			<input>
				<port id="0" precision="FP32">
					<dim>1</dim>
					<dim>3</dim>
					<dim>640</dim>
					<dim>640</dim>
				</port>
				<port id="1" precision="FP32">
					<dim>48</dim>
					<dim>3</dim>
					<dim>3</dim>
					<dim>3</dim>
				</port>
			</input>
			<output>
				<port id="2" precision="FP32">
					<dim>1</dim>
					<dim>48</dim>
					<dim>320</dim>
					<dim>320</dim>
				</port>
			</output>
		</layer>
		<layer id="6" name="Reshape_197_compressed" type="Const" version="opset1">
			<data element_type="f16" shape="1, 48, 1, 1" offset="36192" size="96" />
			<output>
				<port id="0" precision="FP16">
					<dim>1</dim>
					<dim>48</dim>
					<dim>1</dim>
					<dim>1</dim>
				</port>
			</output>
		</layer>
		<layer id="7" name="Reshape_197" type="Convert" version="opset1">
			<data destination_type="f32" />
			<rt_info>
				<attribute name="decompression" version="0" />
			</rt_info>
			<input>
				<port id="0" precision="FP16">
					<dim>1</dim>
					<dim>48</dim>
					<dim>1</dim>
					<dim>1</dim>
				</port>
			</input>
			<output>
				<port id="1" precision="FP32">
					<dim>1</dim>
					<dim>48</dim>
					<dim>1</dim>
					<dim>1</dim>
				</port>
			</output>
		</layer>
		<layer id="8" name="/model.0/conv/Conv" type="Add" version="opset1">
			<data auto_broadcast="numpy" />
			<input>
				<port id="0" precision="FP32">
					<dim>1</dim>
					<dim>48</dim>
					<dim>320</dim>
					<dim>320</dim>
				</port>
				<port id="1" precision="FP32">
					<dim>1</dim>
					<dim>48</dim>
					<dim>1</dim>
					<dim>1</dim>
				</port>
			</input>
			<output>
				<port id="2" precision="FP32" names="/model.0/conv/Conv_output_0">
					<dim>1</dim>
					<dim>48</dim>
					<dim>320</dim>
					<dim>320</dim>
				</port>
			</output>
		</layer>
		<layer id="9" name="/model.0/act/Mul" type="Swish" version="opset4">
			<input>
				<port id="0" precision="FP32">
					<dim>1</dim>
					<dim>48</dim>
					<dim>320</dim>
					<dim>320</dim>
				</port>
			</input>
			<output>
				<port id="1" precision="FP32" names="/model.0/act/Mul_output_0">
					<dim>1</dim>
					<dim>48</dim>
					<dim>320</dim>
					<dim>320</dim>
				</port>
			</output>
		</layer>
		<layer id="10" name="model.1.conv.weight_compressed" type="Const" version="opset1">
			<data element_type="f16" shape="96, 48, 3, 3" offset="36288" size="82944" />
			<output>
				<port id="0" precision="FP16">
					<dim>96</dim>
					<dim>48</dim>
					<dim>3</dim>
					<dim>3</dim>
				</port>
			</output>
		</layer>
		<layer id="11" name="model.1.conv.weight" type="Convert" version="opset1">
			<data destination_type="f32" />
			<rt_info>
				<attribute name="decompression" version="0" />
			</rt_info>
			<input>
				<port id="0" precision="FP16">
					<dim>96</dim>
					<dim>48</dim>
					<dim>3</dim>
					<dim>3</dim>
				</port>
			</input>
			<output>
				<port id="1" precision="FP32" names="model.1.conv.weight">
					<dim>96</dim>
					<dim>48</dim>
					<dim>3</dim>
					<dim>3</dim>
				</port>
			</output>
		</layer>
		<layer id="12" name="/model.1/conv/Conv/WithoutBiases" type="Convolution" version="opset1">
			<data strides="2, 2" dilations="1, 1" pads_begin="1, 1" pads_end="1, 1" auto_pad="explicit" />
			<input>
				<port id="0" precision="FP32">
					<dim>1</dim>
					<dim>48</dim>
					<dim>320</dim>
					<dim>320</dim>
				</port>
				<port id="1" precision="FP32">
					<dim>96</dim>
					<dim>48</dim>
					<dim>3</dim>
					<dim>3</dim>
				</port>
			</input>
			<output>
				<port id="2" precision="FP32">
					<dim>1</dim>
					<dim>96</dim>
					<dim>160</dim>
					<dim>160</dim>
				</port>
			</output>
		</layer>
		<layer id="13" name="Reshape_214_compressed" type="Const" version="opset1">
			<data element_type="f16" shape="1, 96, 1, 1" offset="119232" size="192" />
			<output>
				<port id="0" precision="FP16">
					<dim>1</dim>
					<dim>96</dim>
					<dim>1</dim>
					<dim>1</dim>
				</port>
			</output>
		</layer>
		<layer id="14" name="Reshape_214" type="Convert" version="opset1">
			<data destination_type="f32" />
			<rt_info>
				<attribute name="decompression" version="0" />
			</rt_info>
			<input>
				<port id="0" precision="FP16">
					<dim>1</dim>
					<dim>96</dim>
					<dim>1</dim>
					<dim>1</dim>
				</port>
			</input>
			<output>
				<port id="1" precision="FP32">
					<dim>1</dim>
					<dim>96</dim>
					<dim>1</dim>
					<dim>1</dim>
				</port>
			</output>
		</layer>
		<layer id="15" name="/model.1/conv/Conv" type="Add" version="opset1">
			<data auto_broadcast="numpy" />
			<input>
				<port id="0" precision="FP32">
					<dim>1</dim>
					<dim>96</dim>
					<dim>160</dim>
					<dim>160</dim>
				</port>
				<port id="1" precision="FP32">
					<dim>1</dim>
					<dim>96</dim>
					<dim>1</dim>
					<dim>1</dim>
				</port>
			</input>
			<output>
				<port id="2" precision="FP32" names="/model.1/conv/Conv_output_0">
					<dim>1</dim>
					<dim>96</dim>
					<dim>160</dim>
					<dim>160</dim>
				</port>
			</output>
		</layer>
		<layer id="16" name="/model.1/act/Mul" type="Swish" version="opset4">
			<input>
				<port id="0" precision="FP32">
					<dim>1</dim>
					<dim>96</dim>
					<dim>160</dim>
					<dim>160</dim>
				</port>
			</input>
			<output>
				<port id="1" precision="FP32" names="/model.1/act/Mul_output_0">
					<dim>1</dim>
					<dim>96</dim>
					<dim>160</dim>
					<dim>160</dim>
				</port>
			</output>
		</layer>
		<layer id="17" name="model.2.cv1.conv.weight_compressed" type="Const" version="opset1">
			<data element_type="f16" shape="96, 96, 1, 1" offset="119424" size="18432" />
			<output>
				<port id="0" precision="FP16">
					<dim>96</dim>
					<dim>96</dim>
					<dim>1</dim>
					<dim>1</dim>
				</port>
			</output>
		</layer>
		<layer id="18" name="model.2.cv1.conv.weight" type="Convert" version="opset1">
			<data destination_type="f32" />
			<rt_info>
				<attribute name="decompression" version="0" />
			</rt_info>
			<input>
				<port id="0" precision="FP16">
					<dim>96</dim>
					<dim>96</dim>
					<dim>1</dim>
					<dim>1</dim>
				</port>
			</input>
			<output>
				<port id="1" precision="FP32" names="model.2.cv1.conv.weight">
					<dim>96</dim>
					<dim>96</dim>
					<dim>1</dim>
					<dim>1</dim>
				</port>
			</output>
		</layer>
		<layer id="19" name="/model.2/cv1/conv/Conv/WithoutBiases" type="Convolution" version="opset1">
			<data strides="1, 1" dilations="1, 1" pads_begin="0, 0" pads_end="0, 0" auto_pad="explicit" />
			<input>
				<port id="0" precision="FP32">
					<dim>1</dim>
					<dim>96</dim>
					<dim>160</dim>
					<dim>160</dim>
				</port>
				<port id="1" precision="FP32">
					<dim>96</dim>
					<dim>96</dim>
					<dim>1</dim>
					<dim>1</dim>
				</port>
			</input>
			<output>
				<port id="2" precision="FP32">
					<dim>1</dim>
					<dim>96</dim>
					<dim>160</dim>
					<dim>160</dim>
				</port>
			</output>
		</layer>
		<layer id="20" name="Reshape_231_compressed" type="Const" version="opset1">
			<data element_type="f16" shape="1, 96, 1, 1" offset="137856" size="192" />
			<output>
				<port id="0" precision="FP16">
					<dim>1</dim>
					<dim>96</dim>
					<dim>1</dim>
					<dim>1</dim>
				</port>
			</output>
		</layer>
		<layer id="21" name="Reshape_231" type="Convert" version="opset1">
			<data destination_type="f32" />
			<rt_info>
				<attribute name="decompression" version="0" />
			</rt_info>
			<input>
				<port id="0" precision="FP16">
					<dim>1</dim>
					<dim>96</dim>
					<dim>1</dim>
					<dim>1</dim>
				</port>
			</input>
			<output>
				<port id="1" precision="FP32">
					<dim>1</dim>
					<dim>96</dim>
					<dim>1</dim>
					<dim>1</dim>
				</port>
			</output>
		</layer>
		<layer id="22" name="/model.2/cv1/conv/Conv" type="Add" version="opset1">
			<data auto_broadcast="numpy" />
			<input>
				<port id="0" precision="FP32">
					<dim>1</dim>
					<dim>96</dim>
					<dim>160</dim>
					<dim>160</dim>
				</port>
				<port id="1" precision="FP32">
					<dim>1</dim>
					<dim>96</dim>
					<dim>1</dim>
					<dim>1</dim>
				</port>
			</input>
			<output>
				<port id="2" precision="FP32" names="/model.2/cv1/conv/Conv_output_0">
					<dim>1</dim>
					<dim>96</dim>
					<dim>160</dim>
					<dim>160</dim>
				</port>
			</output>
		</layer>
		<layer id="23" name="/model.2/cv1/act/Mul" type="Swish" version="opset4">
			<input>
				<port id="0" precision="FP32">
					<dim>1</dim>
					<dim>96</dim>
					<dim>160</dim>
					<dim>160</dim>
				</port>
			</input>
			<output>
				<port id="1" precision="FP32" names="/model.2/cv1/act/Mul_output_0">
					<dim>1</dim>
					<dim>96</dim>
					<dim>160</dim>
					<dim>160</dim>
				</port>
			</output>
		</layer>
		<layer id="24" name="Constant_237" type="Const" version="opset1">
			<data element_type="i64" shape="" offset="138048" size="8" />
			<output>
				<port id="0" precision="I64" />
			</output>
		</layer>
		<layer id="25" name="onnx::Split_177" type="Const" version="opset1">
			<data element_type="i64" shape="2" offset="138056" size="16" />
			<output>
				<port id="0" precision="I64" names="onnx::Split_177">
					<dim>2</dim>
				</port>
			</output>
		</layer>
		<layer id="26" name="/model.2/Split" type="VariadicSplit" version="opset1">
			<input>
				<port id="0" precision="FP32">
					<dim>1</dim>
					<dim>96</dim>
					<dim>160</dim>
					<dim>160</dim>
				</port>
				<port id="1" precision="I64" />
				<port id="2" precision="I64">
					<dim>2</dim>
				</port>
			</input>
			<output>
				<port id="3" precision="FP32" names="/model.2/Split_output_0">
					<dim>1</dim>
					<dim>48</dim>
					<dim>160</dim>
					<dim>160</dim>
				</port>
				<port id="4" precision="FP32" names="/model.2/Split_output_1">
					<dim>1</dim>
					<dim>48</dim>
					<dim>160</dim>
					<dim>160</dim>
				</port>
			</output>
		</layer>
		<layer id="27" name="model.2.m.0.cv1.conv.weight_compressed" type="Const" version="opset1">
			<data element_type="f16" shape="48, 48, 3, 3" offset="138072" size="41472" />
			<output>
				<port id="0" precision="FP16">
					<dim>48</dim>
					<dim>48</dim>
					<dim>3</dim>
					<dim>3</dim>
				</port>
			</output>
		</layer>
		<layer id="28" name="model.2.m.0.cv1.conv.weight" type="Convert" version="opset1">
			<data destination_type="f32" />
			<rt_info>
				<attribute name="decompression" version="0" />
			</rt_info>
			<input>
				<port id="0" precision="FP16">
					<dim>48</dim>
					<dim>48</dim>
					<dim>3</dim>
					<dim>3</dim>
				</port>
			</input>
			<output>
				<port id="1" precision="FP32" names="model.2.m.0.cv1.conv.weight">
					<dim>48</dim>
					<dim>48</dim>
					<dim>3</dim>
					<dim>3</dim>
				</port>
			</output>
		</layer>
		<layer id="29" name="/model.2/m.0/cv1/conv/Conv/WithoutBiases" type="Convolution" version="opset1">
			<data strides="1, 1" dilations="1, 1" pads_begin="1, 1" pads_end="1, 1" auto_pad="explicit" />
			<input>
				<port id="0" precision="FP32">
					<dim>1</dim>
					<dim>48</dim>
					<dim>160</dim>
					<dim>160</dim>
				</port>
				<port id="1" precision="FP32">
					<dim>48</dim>
					<dim>48</dim>
					<dim>3</dim>
					<dim>3</dim>
				</port>
			</input>
			<output>
				<port id="2" precision="FP32">
					<dim>1</dim>
					<dim>48</dim>
					<dim>160</dim>
					<dim>160</dim>
				</port>
			</output>
		</layer>
		<layer id="30" name="Reshape_250_compressed" type="Const" version="opset1">
			<data element_type="f16" shape="1, 48, 1, 1" offset="179544" size="96" />
			<output>
				<port id="0" precision="FP16">
					<dim>1</dim>
					<dim>48</dim>
					<dim>1</dim>
					<dim>1</dim>
				</port>
			</output>
		</layer>
		<layer id="31" name="Reshape_250" type="Convert" version="opset1">
			<data destination_type="f32" />
			<rt_info>
				<attribute name="decompression" version="0" />
			</rt_info>
			<input>
				<port id="0" precision="FP16">
					<dim>1</dim>
					<dim>48</dim>
					<dim>1</dim>
					<dim>1</dim>
				</port>
			</input>
			<output>
				<port id="1" precision="FP32">
					<dim>1</dim>
					<dim>48</dim>
					<dim>1</dim>
					<dim>1</dim>
				</port>
			</output>
		</layer>
		<layer id="32" name="/model.2/m.0/cv1/conv/Conv" type="Add" version="opset1">
			<data auto_broadcast="numpy" />
			<input>
				<port id="0" precision="FP32">
					<dim>1</dim>
					<dim>48</dim>
					<dim>160</dim>
					<dim>160</dim>
				</port>
				<port id="1" precision="FP32">
					<dim>1</dim>
					<dim>48</dim>
					<dim>1</dim>
					<dim>1</dim>
				</port>
			</input>
			<output>
				<port id="2" precision="FP32" names="/model.2/m.0/cv1/conv/Conv_output_0">
					<dim>1</dim>
					<dim>48</dim>
					<dim>160</dim>
					<dim>160</dim>
				</port>
			</output>
		</layer>
		<layer id="33" name="/model.2/m.0/cv1/act/Mul" type="Swish" version="opset4">
			<input>
				<port id="0" precision="FP32">
					<dim>1</dim>
					<dim>48</dim>
					<dim>160</dim>
					<dim>160</dim>
				</port>
			</input>
			<output>
				<port id="1" precision="FP32" names="/model.2/m.0/cv1/act/Mul_output_0">
					<dim>1</dim>
					<dim>48</dim>
					<dim>160</dim>
					<dim>160</dim>
				</port>
			</output>
		</layer>
		<layer id="34" name="model.2.m.0.cv2.conv.weight_compressed" type="Const" version="opset1">
			<data element_type="f16" shape="48, 48, 3, 3" offset="179640" size="41472" />
			<output>
				<port id="0" precision="FP16">
					<dim>48</dim>
					<dim>48</dim>
					<dim>3</dim>
					<dim>3</dim>
				</port>
			</output>
		</layer>
		<layer id="35" name="model.2.m.0.cv2.conv.weight" type="Convert" version="opset1">
			<data destination_type="f32" />
			<rt_info>
				<attribute name="decompression" version="0" />
			</rt_info>
			<input>
				<port id="0" precision="FP16">
					<dim>48</dim>
					<dim>48</dim>
					<dim>3</dim>
					<dim>3</dim>
				</port>
			</input>
			<output>
				<port id="1" precision="FP32" names="model.2.m.0.cv2.conv.weight">
					<dim>48</dim>
					<dim>48</dim>
					<dim>3</dim>
					<dim>3</dim>
				</port>
			</output>
		</layer>
		<layer id="36" name="/model.2/m.0/cv2/conv/Conv/WithoutBiases" type="Convolution" version="opset1">
			<data strides="1, 1" dilations="1, 1" pads_begin="1, 1" pads_end="1, 1" auto_pad="explicit" />
			<input>
				<port id="0" precision="FP32">
					<dim>1</dim>
					<dim>48</dim>
					<dim>160</dim>
					<dim>160</dim>
				</port>
				<port id="1" precision="FP32">
					<dim>48</dim>
					<dim>48</dim>
					<dim>3</dim>
					<dim>3</dim>
				</port>
			</input>
			<output>
				<port id="2" precision="FP32">
					<dim>1</dim>
					<dim>48</dim>
					<dim>160</dim>
					<dim>160</dim>
				</port>
			</output>
		</layer>
		<layer id="37" name="Reshape_267_compressed" type="Const" version="opset1">
			<data element_type="f16" shape="1, 48, 1, 1" offset="221112" size="96" />
			<output>
				<port id="0" precision="FP16">
					<dim>1</dim>
					<dim>48</dim>
					<dim>1</dim>
					<dim>1</dim>
				</port>
			</output>
		</layer>
		<layer id="38" name="Reshape_267" type="Convert" version="opset1">
			<data destination_type="f32" />
			<rt_info>
				<attribute name="decompression" version="0" />
			</rt_info>
			<input>
				<port id="0" precision="FP16">
					<dim>1</dim>
					<dim>48</dim>
					<dim>1</dim>
					<dim>1</dim>
				</port>
			</input>
			<output>
				<port id="1" precision="FP32">
					<dim>1</dim>
					<dim>48</dim>
					<dim>1</dim>
					<dim>1</dim>
				</port>
			</output>
		</layer>
		<layer id="39" name="/model.2/m.0/cv2/conv/Conv" type="Add" version="opset1">
			<data auto_broadcast="numpy" />
			<input>
				<port id="0" precision="FP32">
					<dim>1</dim>
					<dim>48</dim>
					<dim>160</dim>
					<dim>160</dim>
				</port>
				<port id="1" precision="FP32">
					<dim>1</dim>
					<dim>48</dim>
					<dim>1</dim>
					<dim>1</dim>
				</port>
			</input>
			<output>
				<port id="2" precision="FP32" names="/model.2/m.0/cv2/conv/Conv_output_0">
					<dim>1</dim>
					<dim>48</dim>
					<dim>160</dim>
					<dim>160</dim>
				</port>
			</output>
		</layer>
		<layer id="40" name="/model.2/m.0/cv2/act/Mul" type="Swish" version="opset4">
			<input>
				<port id="0" precision="FP32">
					<dim>1</dim>
					<dim>48</dim>
					<dim>160</dim>
					<dim>160</dim>
				</port>
			</input>
			<output>
				<port id="1" precision="FP32" names="/model.2/m.0/cv2/act/Mul_output_0">
					<dim>1</dim>
					<dim>48</dim>
					<dim>160</dim>
					<dim>160</dim>
				</port>
			</output>
		</layer>
		<layer id="41" name="/model.2/m.0/Add" type="Add" version="opset1">
			<data auto_broadcast="numpy" />
			<input>
				<port id="0" precision="FP32">
					<dim>1</dim>
					<dim>48</dim>
					<dim>160</dim>
					<dim>160</dim>
				</port>
				<port id="1" precision="FP32">
					<dim>1</dim>
					<dim>48</dim>
					<dim>160</dim>
					<dim>160</dim>
				</port>
			</input>
			<output>
				<port id="2" precision="FP32" names="/model.2/m.0/Add_output_0">
					<dim>1</dim>
					<dim>48</dim>
					<dim>160</dim>
					<dim>160</dim>
				</port>
			</output>
		</layer>
		<layer id="42" name="model.2.m.1.cv1.conv.weight_compressed" type="Const" version="opset1">
			<data element_type="f16" shape="48, 48, 3, 3" offset="221208" size="41472" />
			<output>
				<port id="0" precision="FP16">
					<dim>48</dim>
					<dim>48</dim>
					<dim>3</dim>
					<dim>3</dim>
				</port>
			</output>
		</layer>
		<layer id="43" name="model.2.m.1.cv1.conv.weight" type="Convert" version="opset1">
			<data destination_type="f32" />
			<rt_info>
				<attribute name="decompression" version="0" />
			</rt_info>
			<input>
				<port id="0" precision="FP16">
					<dim>48</dim>
					<dim>48</dim>
					<dim>3</dim>
					<dim>3</dim>
				</port>
			</input>
			<output>
				<port id="1" precision="FP32" names="model.2.m.1.cv1.conv.weight">
					<dim>48</dim>
					<dim>48</dim>
					<dim>3</dim>
					<dim>3</dim>
				</port>
			</output>
		</layer>
		<layer id="44" name="/model.2/m.1/cv1/conv/Conv/WithoutBiases" type="Convolution" version="opset1">
			<data strides="1, 1" dilations="1, 1" pads_begin="1, 1" pads_end="1, 1" auto_pad="explicit" />
			<input>
				<port id="0" precision="FP32">
					<dim>1</dim>
					<dim>48</dim>
					<dim>160</dim>
					<dim>160</dim>
				</port>
				<port id="1" precision="FP32">
					<dim>48</dim>
					<dim>48</dim>
					<dim>3</dim>
					<dim>3</dim>
				</port>
			</input>
			<output>
				<port id="2" precision="FP32">
					<dim>1</dim>
					<dim>48</dim>
					<dim>160</dim>
					<dim>160</dim>
				</port>
			</output>
		</layer>
		<layer id="45" name="Reshape_285_compressed" type="Const" version="opset1">
			<data element_type="f16" shape="1, 48, 1, 1" offset="262680" size="96" />
			<output>
				<port id="0" precision="FP16">
					<dim>1</dim>
					<dim>48</dim>
					<dim>1</dim>
					<dim>1</dim>
				</port>
			</output>
		</layer>
		<layer id="46" name="Reshape_285" type="Convert" version="opset1">
			<data destination_type="f32" />
			<rt_info>
				<attribute name="decompression" version="0" />
			</rt_info>
			<input>
				<port id="0" precision="FP16">
					<dim>1</dim>
					<dim>48</dim>
					<dim>1</dim>
					<dim>1</dim>
				</port>
			</input>
			<output>
				<port id="1" precision="FP32">
					<dim>1</dim>
					<dim>48</dim>
					<dim>1</dim>
					<dim>1</dim>
				</port>
			</output>
		</layer>
		<layer id="47" name="/model.2/m.1/cv1/conv/Conv" type="Add" version="opset1">
			<data auto_broadcast="numpy" />
			<input>
				<port id="0" precision="FP32">
					<dim>1</dim>
					<dim>48</dim>
					<dim>160</dim>
					<dim>160</dim>
				</port>
				<port id="1" precision="FP32">
					<dim>1</dim>
					<dim>48</dim>
					<dim>1</dim>
					<dim>1</dim>
				</port>
			</input>
			<output>
				<port id="2" precision="FP32" names="/model.2/m.1/cv1/conv/Conv_output_0">
					<dim>1</dim>
					<dim>48</dim>
					<dim>160</dim>
					<dim>160</dim>
				</port>
			</output>
		</layer>
		<layer id="48" name="/model.2/m.1/cv1/act/Mul" type="Swish" version="opset4">
			<input>
				<port id="0" precision="FP32">
					<dim>1</dim>
					<dim>48</dim>
					<dim>160</dim>
					<dim>160</dim>
				</port>
			</input>
			<output>
				<port id="1" precision="FP32" names="/model.2/m.1/cv1/act/Mul_output_0">
					<dim>1</dim>
					<dim>48</dim>
					<dim>160</dim>
					<dim>160</dim>
				</port>
			</output>
		</layer>
		<layer id="49" name="model.2.m.1.cv2.conv.weight_compressed" type="Const" version="opset1">
			<data element_type="f16" shape="48, 48, 3, 3" offset="262776" size="41472" />
			<output>
				<port id="0" precision="FP16">
					<dim>48</dim>
					<dim>48</dim>
					<dim>3</dim>
					<dim>3</dim>
				</port>
			</output>
		</layer>
		<layer id="50" name="model.2.m.1.cv2.conv.weight" type="Convert" version="opset1">
			<data destination_type="f32" />
			<rt_info>
				<attribute name="decompression" version="0" />
			</rt_info>
			<input>
				<port id="0" precision="FP16">
					<dim>48</dim>
					<dim>48</dim>
					<dim>3</dim>
					<dim>3</dim>
				</port>
			</input>
			<output>
				<port id="1" precision="FP32" names="model.2.m.1.cv2.conv.weight">
					<dim>48</dim>
					<dim>48</dim>
					<dim>3</dim>
					<dim>3</dim>
				</port>
			</output>
		</layer>
		<layer id="51" name="/model.2/m.1/cv2/conv/Conv/WithoutBiases" type="Convolution" version="opset1">
			<data strides="1, 1" dilations="1, 1" pads_begin="1, 1" pads_end="1, 1" auto_pad="explicit" />
			<input>
				<port id="0" precision="FP32">
					<dim>1</dim>
					<dim>48</dim>
					<dim>160</dim>
					<dim>160</dim>
				</port>
				<port id="1" precision="FP32">
					<dim>48</dim>
					<dim>48</dim>
					<dim>3</dim>
					<dim>3</dim>
				</port>
			</input>
			<output>
				<port id="2" precision="FP32">
					<dim>1</dim>
					<dim>48</dim>
					<dim>160</dim>
					<dim>160</dim>
				</port>
			</output>
		</layer>
		<layer id="52" name="Reshape_302_compressed" type="Const" version="opset1">
			<data element_type="f16" shape="1, 48, 1, 1" offset="304248" size="96" />
			<output>
				<port id="0" precision="FP16">
					<dim>1</dim>
					<dim>48</dim>
					<dim>1</dim>
					<dim>1</dim>
				</port>
			</output>
		</layer>
		<layer id="53" name="Reshape_302" type="Convert" version="opset1">
			<data destination_type="f32" />
			<rt_info>
				<attribute name="decompression" version="0" />
			</rt_info>
			<input>
				<port id="0" precision="FP16">
					<dim>1</dim>
					<dim>48</dim>
					<dim>1</dim>
					<dim>1</dim>
				</port>
			</input>
			<output>
				<port id="1" precision="FP32">
					<dim>1</dim>
					<dim>48</dim>
					<dim>1</dim>
					<dim>1</dim>
				</port>
			</output>
		</layer>
		<layer id="54" name="/model.2/m.1/cv2/conv/Conv" type="Add" version="opset1">
			<data auto_broadcast="numpy" />
			<input>
				<port id="0" precision="FP32">
					<dim>1</dim>
					<dim>48</dim>
					<dim>160</dim>
					<dim>160</dim>
				</port>
				<port id="1" precision="FP32">
					<dim>1</dim>
					<dim>48</dim>
					<dim>1</dim>
					<dim>1</dim>
				</port>
			</input>
			<output>
				<port id="2" precision="FP32" names="/model.2/m.1/cv2/conv/Conv_output_0">
					<dim>1</dim>
					<dim>48</dim>
					<dim>160</dim>
					<dim>160</dim>
				</port>
			</output>
		</layer>
		<layer id="55" name="/model.2/m.1/cv2/act/Mul" type="Swish" version="opset4">
			<input>
				<port id="0" precision="FP32">
					<dim>1</dim>
					<dim>48</dim>
					<dim>160</dim>
					<dim>160</dim>
				</port>
			</input>
			<output>
				<port id="1" precision="FP32" names="/model.2/m.1/cv2/act/Mul_output_0">
					<dim>1</dim>
					<dim>48</dim>
					<dim>160</dim>
					<dim>160</dim>
				</port>
			</output>
		</layer>
		<layer id="56" name="/model.2/m.1/Add" type="Add" version="opset1">
			<data auto_broadcast="numpy" />
			<input>
				<port id="0" precision="FP32">
					<dim>1</dim>
					<dim>48</dim>
					<dim>160</dim>
					<dim>160</dim>
				</port>
				<port id="1" precision="FP32">
					<dim>1</dim>
					<dim>48</dim>
					<dim>160</dim>
					<dim>160</dim>
				</port>
			</input>
			<output>
				<port id="2" precision="FP32" names="/model.2/m.1/Add_output_0">
					<dim>1</dim>
					<dim>48</dim>
					<dim>160</dim>
					<dim>160</dim>
				</port>
			</output>
		</layer>
		<layer id="57" name="/model.2/Concat" type="Concat" version="opset1">
			<data axis="1" />
			<input>
				<port id="0" precision="FP32">
					<dim>1</dim>
					<dim>48</dim>
					<dim>160</dim>
					<dim>160</dim>
				</port>
				<port id="1" precision="FP32">
					<dim>1</dim>
					<dim>48</dim>
					<dim>160</dim>
					<dim>160</dim>
				</port>
				<port id="2" precision="FP32">
					<dim>1</dim>
					<dim>48</dim>
					<dim>160</dim>
					<dim>160</dim>
				</port>
				<port id="3" precision="FP32">
					<dim>1</dim>
					<dim>48</dim>
					<dim>160</dim>
					<dim>160</dim>
				</port>
			</input>
			<output>
				<port id="4" precision="FP32" names="/model.2/Concat_output_0">
					<dim>1</dim>
					<dim>192</dim>
					<dim>160</dim>
					<dim>160</dim>
				</port>
			</output>
		</layer>
		<layer id="58" name="model.2.cv2.conv.weight_compressed" type="Const" version="opset1">
			<data element_type="f16" shape="96, 192, 1, 1" offset="304344" size="36864" />
			<output>
				<port id="0" precision="FP16">
					<dim>96</dim>
					<dim>192</dim>
					<dim>1</dim>
					<dim>1</dim>
				</port>
			</output>
		</layer>
		<layer id="59" name="model.2.cv2.conv.weight" type="Convert" version="opset1">
			<data destination_type="f32" />
			<rt_info>
				<attribute name="decompression" version="0" />
			</rt_info>
			<input>
				<port id="0" precision="FP16">
					<dim>96</dim>
					<dim>192</dim>
					<dim>1</dim>
					<dim>1</dim>
				</port>
			</input>
			<output>
				<port id="1" precision="FP32" names="model.2.cv2.conv.weight">
					<dim>96</dim>
					<dim>192</dim>
					<dim>1</dim>
					<dim>1</dim>
				</port>
			</output>
		</layer>
		<layer id="60" name="/model.2/cv2/conv/Conv/WithoutBiases" type="Convolution" version="opset1">
			<data strides="1, 1" dilations="1, 1" pads_begin="0, 0" pads_end="0, 0" auto_pad="explicit" />
			<input>
				<port id="0" precision="FP32">
					<dim>1</dim>
					<dim>192</dim>
					<dim>160</dim>
					<dim>160</dim>
				</port>
				<port id="1" precision="FP32">
					<dim>96</dim>
					<dim>192</dim>
					<dim>1</dim>
					<dim>1</dim>
				</port>
			</input>
			<output>
				<port id="2" precision="FP32">
					<dim>1</dim>
					<dim>96</dim>
					<dim>160</dim>
					<dim>160</dim>
				</port>
			</output>
		</layer>
		<layer id="61" name="Reshape_321_compressed" type="Const" version="opset1">
			<data element_type="f16" shape="1, 96, 1, 1" offset="341208" size="192" />
			<output>
				<port id="0" precision="FP16">
					<dim>1</dim>
					<dim>96</dim>
					<dim>1</dim>
					<dim>1</dim>
				</port>
			</output>
		</layer>
		<layer id="62" name="Reshape_321" type="Convert" version="opset1">
			<data destination_type="f32" />
			<rt_info>
				<attribute name="decompression" version="0" />
			</rt_info>
			<input>
				<port id="0" precision="FP16">
					<dim>1</dim>
					<dim>96</dim>
					<dim>1</dim>
					<dim>1</dim>
				</port>
			</input>
			<output>
				<port id="1" precision="FP32">
					<dim>1</dim>
					<dim>96</dim>
					<dim>1</dim>
					<dim>1</dim>
				</port>
			</output>
		</layer>
		<layer id="63" name="/model.2/cv2/conv/Conv" type="Add" version="opset1">
			<data auto_broadcast="numpy" />
			<input>
				<port id="0" precision="FP32">
					<dim>1</dim>
					<dim>96</dim>
					<dim>160</dim>
					<dim>160</dim>
				</port>
				<port id="1" precision="FP32">
					<dim>1</dim>
					<dim>96</dim>
					<dim>1</dim>
					<dim>1</dim>
				</port>
			</input>
			<output>
				<port id="2" precision="FP32" names="/model.2/cv2/conv/Conv_output_0">
					<dim>1</dim>
					<dim>96</dim>
					<dim>160</dim>
					<dim>160</dim>
				</port>
			</output>
		</layer>
		<layer id="64" name="/model.2/cv2/act/Mul" type="Swish" version="opset4">
			<input>
				<port id="0" precision="FP32">
					<dim>1</dim>
					<dim>96</dim>
					<dim>160</dim>
					<dim>160</dim>
				</port>
			</input>
			<output>
				<port id="1" precision="FP32" names="/model.2/cv2/act/Mul_output_0">
					<dim>1</dim>
					<dim>96</dim>
					<dim>160</dim>
					<dim>160</dim>
				</port>
			</output>
		</layer>
		<layer id="65" name="model.3.conv.weight_compressed" type="Const" version="opset1">
			<data element_type="f16" shape="192, 96, 3, 3" offset="341400" size="331776" />
			<output>
				<port id="0" precision="FP16">
					<dim>192</dim>
					<dim>96</dim>
					<dim>3</dim>
					<dim>3</dim>
				</port>
			</output>
		</layer>
		<layer id="66" name="model.3.conv.weight" type="Convert" version="opset1">
			<data destination_type="f32" />
			<rt_info>
				<attribute name="decompression" version="0" />
			</rt_info>
			<input>
				<port id="0" precision="FP16">
					<dim>192</dim>
					<dim>96</dim>
					<dim>3</dim>
					<dim>3</dim>
				</port>
			</input>
			<output>
				<port id="1" precision="FP32" names="model.3.conv.weight">
					<dim>192</dim>
					<dim>96</dim>
					<dim>3</dim>
					<dim>3</dim>
				</port>
			</output>
		</layer>
		<layer id="67" name="/model.3/conv/Conv/WithoutBiases" type="Convolution" version="opset1">
			<data strides="2, 2" dilations="1, 1" pads_begin="1, 1" pads_end="1, 1" auto_pad="explicit" />
			<input>
				<port id="0" precision="FP32">
					<dim>1</dim>
					<dim>96</dim>
					<dim>160</dim>
					<dim>160</dim>
				</port>
				<port id="1" precision="FP32">
					<dim>192</dim>
					<dim>96</dim>
					<dim>3</dim>
					<dim>3</dim>
				</port>
			</input>
			<output>
				<port id="2" precision="FP32">
					<dim>1</dim>
					<dim>192</dim>
					<dim>80</dim>
					<dim>80</dim>
				</port>
			</output>
		</layer>
		<layer id="68" name="Reshape_338_compressed" type="Const" version="opset1">
			<data element_type="f16" shape="1, 192, 1, 1" offset="673176" size="384" />
			<output>
				<port id="0" precision="FP16">
					<dim>1</dim>
					<dim>192</dim>
					<dim>1</dim>
					<dim>1</dim>
				</port>
			</output>
		</layer>
		<layer id="69" name="Reshape_338" type="Convert" version="opset1">
			<data destination_type="f32" />
			<rt_info>
				<attribute name="decompression" version="0" />
			</rt_info>
			<input>
				<port id="0" precision="FP16">
					<dim>1</dim>
					<dim>192</dim>
					<dim>1</dim>
					<dim>1</dim>
				</port>
			</input>
			<output>
				<port id="1" precision="FP32">
					<dim>1</dim>
					<dim>192</dim>
					<dim>1</dim>
					<dim>1</dim>
				</port>
			</output>
		</layer>
		<layer id="70" name="/model.3/conv/Conv" type="Add" version="opset1">
			<data auto_broadcast="numpy" />
			<input>
				<port id="0" precision="FP32">
					<dim>1</dim>
					<dim>192</dim>
					<dim>80</dim>
					<dim>80</dim>
				</port>
				<port id="1" precision="FP32">
					<dim>1</dim>
					<dim>192</dim>
					<dim>1</dim>
					<dim>1</dim>
				</port>
			</input>
			<output>
				<port id="2" precision="FP32" names="/model.3/conv/Conv_output_0">
					<dim>1</dim>
					<dim>192</dim>
					<dim>80</dim>
					<dim>80</dim>
				</port>
			</output>
		</layer>
		<layer id="71" name="/model.3/act/Mul" type="Swish" version="opset4">
			<input>
				<port id="0" precision="FP32">
					<dim>1</dim>
					<dim>192</dim>
					<dim>80</dim>
					<dim>80</dim>
				</port>
			</input>
			<output>
				<port id="1" precision="FP32" names="/model.3/act/Mul_output_0">
					<dim>1</dim>
					<dim>192</dim>
					<dim>80</dim>
					<dim>80</dim>
				</port>
			</output>
		</layer>
		<layer id="72" name="model.4.cv1.conv.weight_compressed" type="Const" version="opset1">
			<data element_type="f16" shape="192, 192, 1, 1" offset="673560" size="73728" />
			<output>
				<port id="0" precision="FP16">
					<dim>192</dim>
					<dim>192</dim>
					<dim>1</dim>
					<dim>1</dim>
				</port>
			</output>
		</layer>
		<layer id="73" name="model.4.cv1.conv.weight" type="Convert" version="opset1">
			<data destination_type="f32" />
			<rt_info>
				<attribute name="decompression" version="0" />
			</rt_info>
			<input>
				<port id="0" precision="FP16">
					<dim>192</dim>
					<dim>192</dim>
					<dim>1</dim>
					<dim>1</dim>
				</port>
			</input>
			<output>
				<port id="1" precision="FP32" names="model.4.cv1.conv.weight">
					<dim>192</dim>
					<dim>192</dim>
					<dim>1</dim>
					<dim>1</dim>
				</port>
			</output>
		</layer>
		<layer id="74" name="/model.4/cv1/conv/Conv/WithoutBiases" type="Convolution" version="opset1">
			<data strides="1, 1" dilations="1, 1" pads_begin="0, 0" pads_end="0, 0" auto_pad="explicit" />
			<input>
				<port id="0" precision="FP32">
					<dim>1</dim>
					<dim>192</dim>
					<dim>80</dim>
					<dim>80</dim>
				</port>
				<port id="1" precision="FP32">
					<dim>192</dim>
					<dim>192</dim>
					<dim>1</dim>
					<dim>1</dim>
				</port>
			</input>
			<output>
				<port id="2" precision="FP32">
					<dim>1</dim>
					<dim>192</dim>
					<dim>80</dim>
					<dim>80</dim>
				</port>
			</output>
		</layer>
		<layer id="75" name="Reshape_355_compressed" type="Const" version="opset1">
			<data element_type="f16" shape="1, 192, 1, 1" offset="747288" size="384" />
			<output>
				<port id="0" precision="FP16">
					<dim>1</dim>
					<dim>192</dim>
					<dim>1</dim>
					<dim>1</dim>
				</port>
			</output>
		</layer>
		<layer id="76" name="Reshape_355" type="Convert" version="opset1">
			<data destination_type="f32" />
			<rt_info>
				<attribute name="decompression" version="0" />
			</rt_info>
			<input>
				<port id="0" precision="FP16">
					<dim>1</dim>
					<dim>192</dim>
					<dim>1</dim>
					<dim>1</dim>
				</port>
			</input>
			<output>
				<port id="1" precision="FP32">
					<dim>1</dim>
					<dim>192</dim>
					<dim>1</dim>
					<dim>1</dim>
				</port>
			</output>
		</layer>
		<layer id="77" name="/model.4/cv1/conv/Conv" type="Add" version="opset1">
			<data auto_broadcast="numpy" />
			<input>
				<port id="0" precision="FP32">
					<dim>1</dim>
					<dim>192</dim>
					<dim>80</dim>
					<dim>80</dim>
				</port>
				<port id="1" precision="FP32">
					<dim>1</dim>
					<dim>192</dim>
					<dim>1</dim>
					<dim>1</dim>
				</port>
			</input>
			<output>
				<port id="2" precision="FP32" names="/model.4/cv1/conv/Conv_output_0">
					<dim>1</dim>
					<dim>192</dim>
					<dim>80</dim>
					<dim>80</dim>
				</port>
			</output>
		</layer>
		<layer id="78" name="/model.4/cv1/act/Mul" type="Swish" version="opset4">
			<input>
				<port id="0" precision="FP32">
					<dim>1</dim>
					<dim>192</dim>
					<dim>80</dim>
					<dim>80</dim>
				</port>
			</input>
			<output>
				<port id="1" precision="FP32" names="/model.4/cv1/act/Mul_output_0">
					<dim>1</dim>
					<dim>192</dim>
					<dim>80</dim>
					<dim>80</dim>
				</port>
			</output>
		</layer>
		<layer id="79" name="Constant_361" type="Const" version="opset1">
			<data element_type="i64" shape="" offset="138048" size="8" />
			<output>
				<port id="0" precision="I64" />
			</output>
		</layer>
		<layer id="80" name="onnx::Split_204" type="Const" version="opset1">
			<data element_type="i64" shape="2" offset="747672" size="16" />
			<output>
				<port id="0" precision="I64" names="onnx::Split_204">
					<dim>2</dim>
				</port>
			</output>
		</layer>
		<layer id="81" name="/model.4/Split" type="VariadicSplit" version="opset1">
			<input>
				<port id="0" precision="FP32">
					<dim>1</dim>
					<dim>192</dim>
					<dim>80</dim>
					<dim>80</dim>
				</port>
				<port id="1" precision="I64" />
				<port id="2" precision="I64">
					<dim>2</dim>
				</port>
			</input>
			<output>
				<port id="3" precision="FP32" names="/model.4/Split_output_0">
					<dim>1</dim>
					<dim>96</dim>
					<dim>80</dim>
					<dim>80</dim>
				</port>
				<port id="4" precision="FP32" names="/model.4/Split_output_1">
					<dim>1</dim>
					<dim>96</dim>
					<dim>80</dim>
					<dim>80</dim>
				</port>
			</output>
		</layer>
		<layer id="82" name="model.4.m.0.cv1.conv.weight_compressed" type="Const" version="opset1">
			<data element_type="f16" shape="96, 96, 3, 3" offset="747688" size="165888" />
			<output>
				<port id="0" precision="FP16">
					<dim>96</dim>
					<dim>96</dim>
					<dim>3</dim>
					<dim>3</dim>
				</port>
			</output>
		</layer>
		<layer id="83" name="model.4.m.0.cv1.conv.weight" type="Convert" version="opset1">
			<data destination_type="f32" />
			<rt_info>
				<attribute name="decompression" version="0" />
			</rt_info>
			<input>
				<port id="0" precision="FP16">
					<dim>96</dim>
					<dim>96</dim>
					<dim>3</dim>
					<dim>3</dim>
				</port>
			</input>
			<output>
				<port id="1" precision="FP32" names="model.4.m.0.cv1.conv.weight">
					<dim>96</dim>
					<dim>96</dim>
					<dim>3</dim>
					<dim>3</dim>
				</port>
			</output>
		</layer>
		<layer id="84" name="/model.4/m.0/cv1/conv/Conv/WithoutBiases" type="Convolution" version="opset1">
			<data strides="1, 1" dilations="1, 1" pads_begin="1, 1" pads_end="1, 1" auto_pad="explicit" />
			<input>
				<port id="0" precision="FP32">
					<dim>1</dim>
					<dim>96</dim>
					<dim>80</dim>
					<dim>80</dim>
				</port>
				<port id="1" precision="FP32">
					<dim>96</dim>
					<dim>96</dim>
					<dim>3</dim>
					<dim>3</dim>
				</port>
			</input>
			<output>
				<port id="2" precision="FP32">
					<dim>1</dim>
					<dim>96</dim>
					<dim>80</dim>
					<dim>80</dim>
				</port>
			</output>
		</layer>
		<layer id="85" name="Reshape_374_compressed" type="Const" version="opset1">
			<data element_type="f16" shape="1, 96, 1, 1" offset="913576" size="192" />
			<output>
				<port id="0" precision="FP16">
					<dim>1</dim>
					<dim>96</dim>
					<dim>1</dim>
					<dim>1</dim>
				</port>
			</output>
		</layer>
		<layer id="86" name="Reshape_374" type="Convert" version="opset1">
			<data destination_type="f32" />
			<rt_info>
				<attribute name="decompression" version="0" />
			</rt_info>
			<input>
				<port id="0" precision="FP16">
					<dim>1</dim>
					<dim>96</dim>
					<dim>1</dim>
					<dim>1</dim>
				</port>
			</input>
			<output>
				<port id="1" precision="FP32">
					<dim>1</dim>
					<dim>96</dim>
					<dim>1</dim>
					<dim>1</dim>
				</port>
			</output>
		</layer>
		<layer id="87" name="/model.4/m.0/cv1/conv/Conv" type="Add" version="opset1">
			<data auto_broadcast="numpy" />
			<input>
				<port id="0" precision="FP32">
					<dim>1</dim>
					<dim>96</dim>
					<dim>80</dim>
					<dim>80</dim>
				</port>
				<port id="1" precision="FP32">
					<dim>1</dim>
					<dim>96</dim>
					<dim>1</dim>
					<dim>1</dim>
				</port>
			</input>
			<output>
				<port id="2" precision="FP32" names="/model.4/m.0/cv1/conv/Conv_output_0">
					<dim>1</dim>
					<dim>96</dim>
					<dim>80</dim>
					<dim>80</dim>
				</port>
			</output>
		</layer>
		<layer id="88" name="/model.4/m.0/cv1/act/Mul" type="Swish" version="opset4">
			<input>
				<port id="0" precision="FP32">
					<dim>1</dim>
					<dim>96</dim>
					<dim>80</dim>
					<dim>80</dim>
				</port>
			</input>
			<output>
				<port id="1" precision="FP32" names="/model.4/m.0/cv1/act/Mul_output_0">
					<dim>1</dim>
					<dim>96</dim>
					<dim>80</dim>
					<dim>80</dim>
				</port>
			</output>
		</layer>
		<layer id="89" name="model.4.m.0.cv2.conv.weight_compressed" type="Const" version="opset1">
			<data element_type="f16" shape="96, 96, 3, 3" offset="913768" size="165888" />
			<output>
				<port id="0" precision="FP16">
					<dim>96</dim>
					<dim>96</dim>
					<dim>3</dim>
					<dim>3</dim>
				</port>
			</output>
		</layer>
		<layer id="90" name="model.4.m.0.cv2.conv.weight" type="Convert" version="opset1">
			<data destination_type="f32" />
			<rt_info>
				<attribute name="decompression" version="0" />
			</rt_info>
			<input>
				<port id="0" precision="FP16">
					<dim>96</dim>
					<dim>96</dim>
					<dim>3</dim>
					<dim>3</dim>
				</port>
			</input>
			<output>
				<port id="1" precision="FP32" names="model.4.m.0.cv2.conv.weight">
					<dim>96</dim>
					<dim>96</dim>
					<dim>3</dim>
					<dim>3</dim>
				</port>
			</output>
		</layer>
		<layer id="91" name="/model.4/m.0/cv2/conv/Conv/WithoutBiases" type="Convolution" version="opset1">
			<data strides="1, 1" dilations="1, 1" pads_begin="1, 1" pads_end="1, 1" auto_pad="explicit" />
			<input>
				<port id="0" precision="FP32">
					<dim>1</dim>
					<dim>96</dim>
					<dim>80</dim>
					<dim>80</dim>
				</port>
				<port id="1" precision="FP32">
					<dim>96</dim>
					<dim>96</dim>
					<dim>3</dim>
					<dim>3</dim>
				</port>
			</input>
			<output>
				<port id="2" precision="FP32">
					<dim>1</dim>
					<dim>96</dim>
					<dim>80</dim>
					<dim>80</dim>
				</port>
			</output>
		</layer>
		<layer id="92" name="Reshape_391_compressed" type="Const" version="opset1">
			<data element_type="f16" shape="1, 96, 1, 1" offset="1079656" size="192" />
			<output>
				<port id="0" precision="FP16">
					<dim>1</dim>
					<dim>96</dim>
					<dim>1</dim>
					<dim>1</dim>
				</port>
			</output>
		</layer>
		<layer id="93" name="Reshape_391" type="Convert" version="opset1">
			<data destination_type="f32" />
			<rt_info>
				<attribute name="decompression" version="0" />
			</rt_info>
			<input>
				<port id="0" precision="FP16">
					<dim>1</dim>
					<dim>96</dim>
					<dim>1</dim>
					<dim>1</dim>
				</port>
			</input>
			<output>
				<port id="1" precision="FP32">
					<dim>1</dim>
					<dim>96</dim>
					<dim>1</dim>
					<dim>1</dim>
				</port>
			</output>
		</layer>
		<layer id="94" name="/model.4/m.0/cv2/conv/Conv" type="Add" version="opset1">
			<data auto_broadcast="numpy" />
			<input>
				<port id="0" precision="FP32">
					<dim>1</dim>
					<dim>96</dim>
					<dim>80</dim>
					<dim>80</dim>
				</port>
				<port id="1" precision="FP32">
					<dim>1</dim>
					<dim>96</dim>
					<dim>1</dim>
					<dim>1</dim>
				</port>
			</input>
			<output>
				<port id="2" precision="FP32" names="/model.4/m.0/cv2/conv/Conv_output_0">
					<dim>1</dim>
					<dim>96</dim>
					<dim>80</dim>
					<dim>80</dim>
				</port>
			</output>
		</layer>
		<layer id="95" name="/model.4/m.0/cv2/act/Mul" type="Swish" version="opset4">
			<input>
				<port id="0" precision="FP32">
					<dim>1</dim>
					<dim>96</dim>
					<dim>80</dim>
					<dim>80</dim>
				</port>
			</input>
			<output>
				<port id="1" precision="FP32" names="/model.4/m.0/cv2/act/Mul_output_0">
					<dim>1</dim>
					<dim>96</dim>
					<dim>80</dim>
					<dim>80</dim>
				</port>
			</output>
		</layer>
		<layer id="96" name="/model.4/m.0/Add" type="Add" version="opset1">
			<data auto_broadcast="numpy" />
			<input>
				<port id="0" precision="FP32">
					<dim>1</dim>
					<dim>96</dim>
					<dim>80</dim>
					<dim>80</dim>
				</port>
				<port id="1" precision="FP32">
					<dim>1</dim>
					<dim>96</dim>
					<dim>80</dim>
					<dim>80</dim>
				</port>
			</input>
			<output>
				<port id="2" precision="FP32" names="/model.4/m.0/Add_output_0">
					<dim>1</dim>
					<dim>96</dim>
					<dim>80</dim>
					<dim>80</dim>
				</port>
			</output>
		</layer>
		<layer id="97" name="model.4.m.1.cv1.conv.weight_compressed" type="Const" version="opset1">
			<data element_type="f16" shape="96, 96, 3, 3" offset="1079848" size="165888" />
			<output>
				<port id="0" precision="FP16">
					<dim>96</dim>
					<dim>96</dim>
					<dim>3</dim>
					<dim>3</dim>
				</port>
			</output>
		</layer>
		<layer id="98" name="model.4.m.1.cv1.conv.weight" type="Convert" version="opset1">
			<data destination_type="f32" />
			<rt_info>
				<attribute name="decompression" version="0" />
			</rt_info>
			<input>
				<port id="0" precision="FP16">
					<dim>96</dim>
					<dim>96</dim>
					<dim>3</dim>
					<dim>3</dim>
				</port>
			</input>
			<output>
				<port id="1" precision="FP32" names="model.4.m.1.cv1.conv.weight">
					<dim>96</dim>
					<dim>96</dim>
					<dim>3</dim>
					<dim>3</dim>
				</port>
			</output>
		</layer>
		<layer id="99" name="/model.4/m.1/cv1/conv/Conv/WithoutBiases" type="Convolution" version="opset1">
			<data strides="1, 1" dilations="1, 1" pads_begin="1, 1" pads_end="1, 1" auto_pad="explicit" />
			<input>
				<port id="0" precision="FP32">
					<dim>1</dim>
					<dim>96</dim>
					<dim>80</dim>
					<dim>80</dim>
				</port>
				<port id="1" precision="FP32">
					<dim>96</dim>
					<dim>96</dim>
					<dim>3</dim>
					<dim>3</dim>
				</port>
			</input>
			<output>
				<port id="2" precision="FP32">
					<dim>1</dim>
					<dim>96</dim>
					<dim>80</dim>
					<dim>80</dim>
				</port>
			</output>
		</layer>
		<layer id="100" name="Reshape_409_compressed" type="Const" version="opset1">
			<data element_type="f16" shape="1, 96, 1, 1" offset="1245736" size="192" />
			<output>
				<port id="0" precision="FP16">
					<dim>1</dim>
					<dim>96</dim>
					<dim>1</dim>
					<dim>1</dim>
				</port>
			</output>
		</layer>
		<layer id="101" name="Reshape_409" type="Convert" version="opset1">
			<data destination_type="f32" />
			<rt_info>
				<attribute name="decompression" version="0" />
			</rt_info>
			<input>
				<port id="0" precision="FP16">
					<dim>1</dim>
					<dim>96</dim>
					<dim>1</dim>
					<dim>1</dim>
				</port>
			</input>
			<output>
				<port id="1" precision="FP32">
					<dim>1</dim>
					<dim>96</dim>
					<dim>1</dim>
					<dim>1</dim>
				</port>
			</output>
		</layer>
		<layer id="102" name="/model.4/m.1/cv1/conv/Conv" type="Add" version="opset1">
			<data auto_broadcast="numpy" />
			<input>
				<port id="0" precision="FP32">
					<dim>1</dim>
					<dim>96</dim>
					<dim>80</dim>
					<dim>80</dim>
				</port>
				<port id="1" precision="FP32">
					<dim>1</dim>
					<dim>96</dim>
					<dim>1</dim>
					<dim>1</dim>
				</port>
			</input>
			<output>
				<port id="2" precision="FP32" names="/model.4/m.1/cv1/conv/Conv_output_0">
					<dim>1</dim>
					<dim>96</dim>
					<dim>80</dim>
					<dim>80</dim>
				</port>
			</output>
		</layer>
		<layer id="103" name="/model.4/m.1/cv1/act/Mul" type="Swish" version="opset4">
			<input>
				<port id="0" precision="FP32">
					<dim>1</dim>
					<dim>96</dim>
					<dim>80</dim>
					<dim>80</dim>
				</port>
			</input>
			<output>
				<port id="1" precision="FP32" names="/model.4/m.1/cv1/act/Mul_output_0">
					<dim>1</dim>
					<dim>96</dim>
					<dim>80</dim>
					<dim>80</dim>
				</port>
			</output>
		</layer>
		<layer id="104" name="model.4.m.1.cv2.conv.weight_compressed" type="Const" version="opset1">
			<data element_type="f16" shape="96, 96, 3, 3" offset="1245928" size="165888" />
			<output>
				<port id="0" precision="FP16">
					<dim>96</dim>
					<dim>96</dim>
					<dim>3</dim>
					<dim>3</dim>
				</port>
			</output>
		</layer>
		<layer id="105" name="model.4.m.1.cv2.conv.weight" type="Convert" version="opset1">
			<data destination_type="f32" />
			<rt_info>
				<attribute name="decompression" version="0" />
			</rt_info>
			<input>
				<port id="0" precision="FP16">
					<dim>96</dim>
					<dim>96</dim>
					<dim>3</dim>
					<dim>3</dim>
				</port>
			</input>
			<output>
				<port id="1" precision="FP32" names="model.4.m.1.cv2.conv.weight">
					<dim>96</dim>
					<dim>96</dim>
					<dim>3</dim>
					<dim>3</dim>
				</port>
			</output>
		</layer>
		<layer id="106" name="/model.4/m.1/cv2/conv/Conv/WithoutBiases" type="Convolution" version="opset1">
			<data strides="1, 1" dilations="1, 1" pads_begin="1, 1" pads_end="1, 1" auto_pad="explicit" />
			<input>
				<port id="0" precision="FP32">
					<dim>1</dim>
					<dim>96</dim>
					<dim>80</dim>
					<dim>80</dim>
				</port>
				<port id="1" precision="FP32">
					<dim>96</dim>
					<dim>96</dim>
					<dim>3</dim>
					<dim>3</dim>
				</port>
			</input>
			<output>
				<port id="2" precision="FP32">
					<dim>1</dim>
					<dim>96</dim>
					<dim>80</dim>
					<dim>80</dim>
				</port>
			</output>
		</layer>
		<layer id="107" name="Reshape_426_compressed" type="Const" version="opset1">
			<data element_type="f16" shape="1, 96, 1, 1" offset="1411816" size="192" />
			<output>
				<port id="0" precision="FP16">
					<dim>1</dim>
					<dim>96</dim>
					<dim>1</dim>
					<dim>1</dim>
				</port>
			</output>
		</layer>
		<layer id="108" name="Reshape_426" type="Convert" version="opset1">
			<data destination_type="f32" />
			<rt_info>
				<attribute name="decompression" version="0" />
			</rt_info>
			<input>
				<port id="0" precision="FP16">
					<dim>1</dim>
					<dim>96</dim>
					<dim>1</dim>
					<dim>1</dim>
				</port>
			</input>
			<output>
				<port id="1" precision="FP32">
					<dim>1</dim>
					<dim>96</dim>
					<dim>1</dim>
					<dim>1</dim>
				</port>
			</output>
		</layer>
		<layer id="109" name="/model.4/m.1/cv2/conv/Conv" type="Add" version="opset1">
			<data auto_broadcast="numpy" />
			<input>
				<port id="0" precision="FP32">
					<dim>1</dim>
					<dim>96</dim>
					<dim>80</dim>
					<dim>80</dim>
				</port>
				<port id="1" precision="FP32">
					<dim>1</dim>
					<dim>96</dim>
					<dim>1</dim>
					<dim>1</dim>
				</port>
			</input>
			<output>
				<port id="2" precision="FP32" names="/model.4/m.1/cv2/conv/Conv_output_0">
					<dim>1</dim>
					<dim>96</dim>
					<dim>80</dim>
					<dim>80</dim>
				</port>
			</output>
		</layer>
		<layer id="110" name="/model.4/m.1/cv2/act/Mul" type="Swish" version="opset4">
			<input>
				<port id="0" precision="FP32">
					<dim>1</dim>
					<dim>96</dim>
					<dim>80</dim>
					<dim>80</dim>
				</port>
			</input>
			<output>
				<port id="1" precision="FP32" names="/model.4/m.1/cv2/act/Mul_output_0">
					<dim>1</dim>
					<dim>96</dim>
					<dim>80</dim>
					<dim>80</dim>
				</port>
			</output>
		</layer>
		<layer id="111" name="/model.4/m.1/Add" type="Add" version="opset1">
			<data auto_broadcast="numpy" />
			<input>
				<port id="0" precision="FP32">
					<dim>1</dim>
					<dim>96</dim>
					<dim>80</dim>
					<dim>80</dim>
				</port>
				<port id="1" precision="FP32">
					<dim>1</dim>
					<dim>96</dim>
					<dim>80</dim>
					<dim>80</dim>
				</port>
			</input>
			<output>
				<port id="2" precision="FP32" names="/model.4/m.1/Add_output_0">
					<dim>1</dim>
					<dim>96</dim>
					<dim>80</dim>
					<dim>80</dim>
				</port>
			</output>
		</layer>
		<layer id="112" name="model.4.m.2.cv1.conv.weight_compressed" type="Const" version="opset1">
			<data element_type="f16" shape="96, 96, 3, 3" offset="1412008" size="165888" />
			<output>
				<port id="0" precision="FP16">
					<dim>96</dim>
					<dim>96</dim>
					<dim>3</dim>
					<dim>3</dim>
				</port>
			</output>
		</layer>
		<layer id="113" name="model.4.m.2.cv1.conv.weight" type="Convert" version="opset1">
			<data destination_type="f32" />
			<rt_info>
				<attribute name="decompression" version="0" />
			</rt_info>
			<input>
				<port id="0" precision="FP16">
					<dim>96</dim>
					<dim>96</dim>
					<dim>3</dim>
					<dim>3</dim>
				</port>
			</input>
			<output>
				<port id="1" precision="FP32" names="model.4.m.2.cv1.conv.weight">
					<dim>96</dim>
					<dim>96</dim>
					<dim>3</dim>
					<dim>3</dim>
				</port>
			</output>
		</layer>
		<layer id="114" name="/model.4/m.2/cv1/conv/Conv/WithoutBiases" type="Convolution" version="opset1">
			<data strides="1, 1" dilations="1, 1" pads_begin="1, 1" pads_end="1, 1" auto_pad="explicit" />
			<input>
				<port id="0" precision="FP32">
					<dim>1</dim>
					<dim>96</dim>
					<dim>80</dim>
					<dim>80</dim>
				</port>
				<port id="1" precision="FP32">
					<dim>96</dim>
					<dim>96</dim>
					<dim>3</dim>
					<dim>3</dim>
				</port>
			</input>
			<output>
				<port id="2" precision="FP32">
					<dim>1</dim>
					<dim>96</dim>
					<dim>80</dim>
					<dim>80</dim>
				</port>
			</output>
		</layer>
		<layer id="115" name="Reshape_444_compressed" type="Const" version="opset1">
			<data element_type="f16" shape="1, 96, 1, 1" offset="1577896" size="192" />
			<output>
				<port id="0" precision="FP16">
					<dim>1</dim>
					<dim>96</dim>
					<dim>1</dim>
					<dim>1</dim>
				</port>
			</output>
		</layer>
		<layer id="116" name="Reshape_444" type="Convert" version="opset1">
			<data destination_type="f32" />
			<rt_info>
				<attribute name="decompression" version="0" />
			</rt_info>
			<input>
				<port id="0" precision="FP16">
					<dim>1</dim>
					<dim>96</dim>
					<dim>1</dim>
					<dim>1</dim>
				</port>
			</input>
			<output>
				<port id="1" precision="FP32">
					<dim>1</dim>
					<dim>96</dim>
					<dim>1</dim>
					<dim>1</dim>
				</port>
			</output>
		</layer>
		<layer id="117" name="/model.4/m.2/cv1/conv/Conv" type="Add" version="opset1">
			<data auto_broadcast="numpy" />
			<input>
				<port id="0" precision="FP32">
					<dim>1</dim>
					<dim>96</dim>
					<dim>80</dim>
					<dim>80</dim>
				</port>
				<port id="1" precision="FP32">
					<dim>1</dim>
					<dim>96</dim>
					<dim>1</dim>
					<dim>1</dim>
				</port>
			</input>
			<output>
				<port id="2" precision="FP32" names="/model.4/m.2/cv1/conv/Conv_output_0">
					<dim>1</dim>
					<dim>96</dim>
					<dim>80</dim>
					<dim>80</dim>
				</port>
			</output>
		</layer>
		<layer id="118" name="/model.4/m.2/cv1/act/Mul" type="Swish" version="opset4">
			<input>
				<port id="0" precision="FP32">
					<dim>1</dim>
					<dim>96</dim>
					<dim>80</dim>
					<dim>80</dim>
				</port>
			</input>
			<output>
				<port id="1" precision="FP32" names="/model.4/m.2/cv1/act/Mul_output_0">
					<dim>1</dim>
					<dim>96</dim>
					<dim>80</dim>
					<dim>80</dim>
				</port>
			</output>
		</layer>
		<layer id="119" name="model.4.m.2.cv2.conv.weight_compressed" type="Const" version="opset1">
			<data element_type="f16" shape="96, 96, 3, 3" offset="1578088" size="165888" />
			<output>
				<port id="0" precision="FP16">
					<dim>96</dim>
					<dim>96</dim>
					<dim>3</dim>
					<dim>3</dim>
				</port>
			</output>
		</layer>
		<layer id="120" name="model.4.m.2.cv2.conv.weight" type="Convert" version="opset1">
			<data destination_type="f32" />
			<rt_info>
				<attribute name="decompression" version="0" />
			</rt_info>
			<input>
				<port id="0" precision="FP16">
					<dim>96</dim>
					<dim>96</dim>
					<dim>3</dim>
					<dim>3</dim>
				</port>
			</input>
			<output>
				<port id="1" precision="FP32" names="model.4.m.2.cv2.conv.weight">
					<dim>96</dim>
					<dim>96</dim>
					<dim>3</dim>
					<dim>3</dim>
				</port>
			</output>
		</layer>
		<layer id="121" name="/model.4/m.2/cv2/conv/Conv/WithoutBiases" type="Convolution" version="opset1">
			<data strides="1, 1" dilations="1, 1" pads_begin="1, 1" pads_end="1, 1" auto_pad="explicit" />
			<input>
				<port id="0" precision="FP32">
					<dim>1</dim>
					<dim>96</dim>
					<dim>80</dim>
					<dim>80</dim>
				</port>
				<port id="1" precision="FP32">
					<dim>96</dim>
					<dim>96</dim>
					<dim>3</dim>
					<dim>3</dim>
				</port>
			</input>
			<output>
				<port id="2" precision="FP32">
					<dim>1</dim>
					<dim>96</dim>
					<dim>80</dim>
					<dim>80</dim>
				</port>
			</output>
		</layer>
		<layer id="122" name="Reshape_461_compressed" type="Const" version="opset1">
			<data element_type="f16" shape="1, 96, 1, 1" offset="1743976" size="192" />
			<output>
				<port id="0" precision="FP16">
					<dim>1</dim>
					<dim>96</dim>
					<dim>1</dim>
					<dim>1</dim>
				</port>
			</output>
		</layer>
		<layer id="123" name="Reshape_461" type="Convert" version="opset1">
			<data destination_type="f32" />
			<rt_info>
				<attribute name="decompression" version="0" />
			</rt_info>
			<input>
				<port id="0" precision="FP16">
					<dim>1</dim>
					<dim>96</dim>
					<dim>1</dim>
					<dim>1</dim>
				</port>
			</input>
			<output>
				<port id="1" precision="FP32">
					<dim>1</dim>
					<dim>96</dim>
					<dim>1</dim>
					<dim>1</dim>
				</port>
			</output>
		</layer>
		<layer id="124" name="/model.4/m.2/cv2/conv/Conv" type="Add" version="opset1">
			<data auto_broadcast="numpy" />
			<input>
				<port id="0" precision="FP32">
					<dim>1</dim>
					<dim>96</dim>
					<dim>80</dim>
					<dim>80</dim>
				</port>
				<port id="1" precision="FP32">
					<dim>1</dim>
					<dim>96</dim>
					<dim>1</dim>
					<dim>1</dim>
				</port>
			</input>
			<output>
				<port id="2" precision="FP32" names="/model.4/m.2/cv2/conv/Conv_output_0">
					<dim>1</dim>
					<dim>96</dim>
					<dim>80</dim>
					<dim>80</dim>
				</port>
			</output>
		</layer>
		<layer id="125" name="/model.4/m.2/cv2/act/Mul" type="Swish" version="opset4">
			<input>
				<port id="0" precision="FP32">
					<dim>1</dim>
					<dim>96</dim>
					<dim>80</dim>
					<dim>80</dim>
				</port>
			</input>
			<output>
				<port id="1" precision="FP32" names="/model.4/m.2/cv2/act/Mul_output_0">
					<dim>1</dim>
					<dim>96</dim>
					<dim>80</dim>
					<dim>80</dim>
				</port>
			</output>
		</layer>
		<layer id="126" name="/model.4/m.2/Add" type="Add" version="opset1">
			<data auto_broadcast="numpy" />
			<input>
				<port id="0" precision="FP32">
					<dim>1</dim>
					<dim>96</dim>
					<dim>80</dim>
					<dim>80</dim>
				</port>
				<port id="1" precision="FP32">
					<dim>1</dim>
					<dim>96</dim>
					<dim>80</dim>
					<dim>80</dim>
				</port>
			</input>
			<output>
				<port id="2" precision="FP32" names="/model.4/m.2/Add_output_0">
					<dim>1</dim>
					<dim>96</dim>
					<dim>80</dim>
					<dim>80</dim>
				</port>
			</output>
		</layer>
		<layer id="127" name="model.4.m.3.cv1.conv.weight_compressed" type="Const" version="opset1">
			<data element_type="f16" shape="96, 96, 3, 3" offset="1744168" size="165888" />
			<output>
				<port id="0" precision="FP16">
					<dim>96</dim>
					<dim>96</dim>
					<dim>3</dim>
					<dim>3</dim>
				</port>
			</output>
		</layer>
		<layer id="128" name="model.4.m.3.cv1.conv.weight" type="Convert" version="opset1">
			<data destination_type="f32" />
			<rt_info>
				<attribute name="decompression" version="0" />
			</rt_info>
			<input>
				<port id="0" precision="FP16">
					<dim>96</dim>
					<dim>96</dim>
					<dim>3</dim>
					<dim>3</dim>
				</port>
			</input>
			<output>
				<port id="1" precision="FP32" names="model.4.m.3.cv1.conv.weight">
					<dim>96</dim>
					<dim>96</dim>
					<dim>3</dim>
					<dim>3</dim>
				</port>
			</output>
		</layer>
		<layer id="129" name="/model.4/m.3/cv1/conv/Conv/WithoutBiases" type="Convolution" version="opset1">
			<data strides="1, 1" dilations="1, 1" pads_begin="1, 1" pads_end="1, 1" auto_pad="explicit" />
			<input>
				<port id="0" precision="FP32">
					<dim>1</dim>
					<dim>96</dim>
					<dim>80</dim>
					<dim>80</dim>
				</port>
				<port id="1" precision="FP32">
					<dim>96</dim>
					<dim>96</dim>
					<dim>3</dim>
					<dim>3</dim>
				</port>
			</input>
			<output>
				<port id="2" precision="FP32">
					<dim>1</dim>
					<dim>96</dim>
					<dim>80</dim>
					<dim>80</dim>
				</port>
			</output>
		</layer>
		<layer id="130" name="Reshape_479_compressed" type="Const" version="opset1">
			<data element_type="f16" shape="1, 96, 1, 1" offset="1910056" size="192" />
			<output>
				<port id="0" precision="FP16">
					<dim>1</dim>
					<dim>96</dim>
					<dim>1</dim>
					<dim>1</dim>
				</port>
			</output>
		</layer>
		<layer id="131" name="Reshape_479" type="Convert" version="opset1">
			<data destination_type="f32" />
			<rt_info>
				<attribute name="decompression" version="0" />
			</rt_info>
			<input>
				<port id="0" precision="FP16">
					<dim>1</dim>
					<dim>96</dim>
					<dim>1</dim>
					<dim>1</dim>
				</port>
			</input>
			<output>
				<port id="1" precision="FP32">
					<dim>1</dim>
					<dim>96</dim>
					<dim>1</dim>
					<dim>1</dim>
				</port>
			</output>
		</layer>
		<layer id="132" name="/model.4/m.3/cv1/conv/Conv" type="Add" version="opset1">
			<data auto_broadcast="numpy" />
			<input>
				<port id="0" precision="FP32">
					<dim>1</dim>
					<dim>96</dim>
					<dim>80</dim>
					<dim>80</dim>
				</port>
				<port id="1" precision="FP32">
					<dim>1</dim>
					<dim>96</dim>
					<dim>1</dim>
					<dim>1</dim>
				</port>
			</input>
			<output>
				<port id="2" precision="FP32" names="/model.4/m.3/cv1/conv/Conv_output_0">
					<dim>1</dim>
					<dim>96</dim>
					<dim>80</dim>
					<dim>80</dim>
				</port>
			</output>
		</layer>
		<layer id="133" name="/model.4/m.3/cv1/act/Mul" type="Swish" version="opset4">
			<input>
				<port id="0" precision="FP32">
					<dim>1</dim>
					<dim>96</dim>
					<dim>80</dim>
					<dim>80</dim>
				</port>
			</input>
			<output>
				<port id="1" precision="FP32" names="/model.4/m.3/cv1/act/Mul_output_0">
					<dim>1</dim>
					<dim>96</dim>
					<dim>80</dim>
					<dim>80</dim>
				</port>
			</output>
		</layer>
		<layer id="134" name="model.4.m.3.cv2.conv.weight_compressed" type="Const" version="opset1">
			<data element_type="f16" shape="96, 96, 3, 3" offset="1910248" size="165888" />
			<output>
				<port id="0" precision="FP16">
					<dim>96</dim>
					<dim>96</dim>
					<dim>3</dim>
					<dim>3</dim>
				</port>
			</output>
		</layer>
		<layer id="135" name="model.4.m.3.cv2.conv.weight" type="Convert" version="opset1">
			<data destination_type="f32" />
			<rt_info>
				<attribute name="decompression" version="0" />
			</rt_info>
			<input>
				<port id="0" precision="FP16">
					<dim>96</dim>
					<dim>96</dim>
					<dim>3</dim>
					<dim>3</dim>
				</port>
			</input>
			<output>
				<port id="1" precision="FP32" names="model.4.m.3.cv2.conv.weight">
					<dim>96</dim>
					<dim>96</dim>
					<dim>3</dim>
					<dim>3</dim>
				</port>
			</output>
		</layer>
		<layer id="136" name="/model.4/m.3/cv2/conv/Conv/WithoutBiases" type="Convolution" version="opset1">
			<data strides="1, 1" dilations="1, 1" pads_begin="1, 1" pads_end="1, 1" auto_pad="explicit" />
			<input>
				<port id="0" precision="FP32">
					<dim>1</dim>
					<dim>96</dim>
					<dim>80</dim>
					<dim>80</dim>
				</port>
				<port id="1" precision="FP32">
					<dim>96</dim>
					<dim>96</dim>
					<dim>3</dim>
					<dim>3</dim>
				</port>
			</input>
			<output>
				<port id="2" precision="FP32">
					<dim>1</dim>
					<dim>96</dim>
					<dim>80</dim>
					<dim>80</dim>
				</port>
			</output>
		</layer>
		<layer id="137" name="Reshape_496_compressed" type="Const" version="opset1">
			<data element_type="f16" shape="1, 96, 1, 1" offset="2076136" size="192" />
			<output>
				<port id="0" precision="FP16">
					<dim>1</dim>
					<dim>96</dim>
					<dim>1</dim>
					<dim>1</dim>
				</port>
			</output>
		</layer>
		<layer id="138" name="Reshape_496" type="Convert" version="opset1">
			<data destination_type="f32" />
			<rt_info>
				<attribute name="decompression" version="0" />
			</rt_info>
			<input>
				<port id="0" precision="FP16">
					<dim>1</dim>
					<dim>96</dim>
					<dim>1</dim>
					<dim>1</dim>
				</port>
			</input>
			<output>
				<port id="1" precision="FP32">
					<dim>1</dim>
					<dim>96</dim>
					<dim>1</dim>
					<dim>1</dim>
				</port>
			</output>
		</layer>
		<layer id="139" name="/model.4/m.3/cv2/conv/Conv" type="Add" version="opset1">
			<data auto_broadcast="numpy" />
			<input>
				<port id="0" precision="FP32">
					<dim>1</dim>
					<dim>96</dim>
					<dim>80</dim>
					<dim>80</dim>
				</port>
				<port id="1" precision="FP32">
					<dim>1</dim>
					<dim>96</dim>
					<dim>1</dim>
					<dim>1</dim>
				</port>
			</input>
			<output>
				<port id="2" precision="FP32" names="/model.4/m.3/cv2/conv/Conv_output_0">
					<dim>1</dim>
					<dim>96</dim>
					<dim>80</dim>
					<dim>80</dim>
				</port>
			</output>
		</layer>
		<layer id="140" name="/model.4/m.3/cv2/act/Mul" type="Swish" version="opset4">
			<input>
				<port id="0" precision="FP32">
					<dim>1</dim>
					<dim>96</dim>
					<dim>80</dim>
					<dim>80</dim>
				</port>
			</input>
			<output>
				<port id="1" precision="FP32" names="/model.4/m.3/cv2/act/Mul_output_0">
					<dim>1</dim>
					<dim>96</dim>
					<dim>80</dim>
					<dim>80</dim>
				</port>
			</output>
		</layer>
		<layer id="141" name="/model.4/m.3/Add" type="Add" version="opset1">
			<data auto_broadcast="numpy" />
			<input>
				<port id="0" precision="FP32">
					<dim>1</dim>
					<dim>96</dim>
					<dim>80</dim>
					<dim>80</dim>
				</port>
				<port id="1" precision="FP32">
					<dim>1</dim>
					<dim>96</dim>
					<dim>80</dim>
					<dim>80</dim>
				</port>
			</input>
			<output>
				<port id="2" precision="FP32" names="/model.4/m.3/Add_output_0">
					<dim>1</dim>
					<dim>96</dim>
					<dim>80</dim>
					<dim>80</dim>
				</port>
			</output>
		</layer>
		<layer id="142" name="/model.4/Concat" type="Concat" version="opset1">
			<data axis="1" />
			<input>
				<port id="0" precision="FP32">
					<dim>1</dim>
					<dim>96</dim>
					<dim>80</dim>
					<dim>80</dim>
				</port>
				<port id="1" precision="FP32">
					<dim>1</dim>
					<dim>96</dim>
					<dim>80</dim>
					<dim>80</dim>
				</port>
				<port id="2" precision="FP32">
					<dim>1</dim>
					<dim>96</dim>
					<dim>80</dim>
					<dim>80</dim>
				</port>
				<port id="3" precision="FP32">
					<dim>1</dim>
					<dim>96</dim>
					<dim>80</dim>
					<dim>80</dim>
				</port>
				<port id="4" precision="FP32">
					<dim>1</dim>
					<dim>96</dim>
					<dim>80</dim>
					<dim>80</dim>
				</port>
				<port id="5" precision="FP32">
					<dim>1</dim>
					<dim>96</dim>
					<dim>80</dim>
					<dim>80</dim>
				</port>
			</input>
			<output>
				<port id="6" precision="FP32" names="/model.4/Concat_output_0">
					<dim>1</dim>
					<dim>576</dim>
					<dim>80</dim>
					<dim>80</dim>
				</port>
			</output>
		</layer>
		<layer id="143" name="model.4.cv2.conv.weight_compressed" type="Const" version="opset1">
			<data element_type="f16" shape="192, 576, 1, 1" offset="2076328" size="221184" />
			<output>
				<port id="0" precision="FP16">
					<dim>192</dim>
					<dim>576</dim>
					<dim>1</dim>
					<dim>1</dim>
				</port>
			</output>
		</layer>
		<layer id="144" name="model.4.cv2.conv.weight" type="Convert" version="opset1">
			<data destination_type="f32" />
			<rt_info>
				<attribute name="decompression" version="0" />
			</rt_info>
			<input>
				<port id="0" precision="FP16">
					<dim>192</dim>
					<dim>576</dim>
					<dim>1</dim>
					<dim>1</dim>
				</port>
			</input>
			<output>
				<port id="1" precision="FP32" names="model.4.cv2.conv.weight">
					<dim>192</dim>
					<dim>576</dim>
					<dim>1</dim>
					<dim>1</dim>
				</port>
			</output>
		</layer>
		<layer id="145" name="/model.4/cv2/conv/Conv/WithoutBiases" type="Convolution" version="opset1">
			<data strides="1, 1" dilations="1, 1" pads_begin="0, 0" pads_end="0, 0" auto_pad="explicit" />
			<input>
				<port id="0" precision="FP32">
					<dim>1</dim>
					<dim>576</dim>
					<dim>80</dim>
					<dim>80</dim>
				</port>
				<port id="1" precision="FP32">
					<dim>192</dim>
					<dim>576</dim>
					<dim>1</dim>
					<dim>1</dim>
				</port>
			</input>
			<output>
				<port id="2" precision="FP32">
					<dim>1</dim>
					<dim>192</dim>
					<dim>80</dim>
					<dim>80</dim>
				</port>
			</output>
		</layer>
		<layer id="146" name="Reshape_515_compressed" type="Const" version="opset1">
			<data element_type="f16" shape="1, 192, 1, 1" offset="2297512" size="384" />
			<output>
				<port id="0" precision="FP16">
					<dim>1</dim>
					<dim>192</dim>
					<dim>1</dim>
					<dim>1</dim>
				</port>
			</output>
		</layer>
		<layer id="147" name="Reshape_515" type="Convert" version="opset1">
			<data destination_type="f32" />
			<rt_info>
				<attribute name="decompression" version="0" />
			</rt_info>
			<input>
				<port id="0" precision="FP16">
					<dim>1</dim>
					<dim>192</dim>
					<dim>1</dim>
					<dim>1</dim>
				</port>
			</input>
			<output>
				<port id="1" precision="FP32">
					<dim>1</dim>
					<dim>192</dim>
					<dim>1</dim>
					<dim>1</dim>
				</port>
			</output>
		</layer>
		<layer id="148" name="/model.4/cv2/conv/Conv" type="Add" version="opset1">
			<data auto_broadcast="numpy" />
			<input>
				<port id="0" precision="FP32">
					<dim>1</dim>
					<dim>192</dim>
					<dim>80</dim>
					<dim>80</dim>
				</port>
				<port id="1" precision="FP32">
					<dim>1</dim>
					<dim>192</dim>
					<dim>1</dim>
					<dim>1</dim>
				</port>
			</input>
			<output>
				<port id="2" precision="FP32" names="/model.4/cv2/conv/Conv_output_0">
					<dim>1</dim>
					<dim>192</dim>
					<dim>80</dim>
					<dim>80</dim>
				</port>
			</output>
		</layer>
		<layer id="149" name="/model.4/cv2/act/Mul" type="Swish" version="opset4">
			<input>
				<port id="0" precision="FP32">
					<dim>1</dim>
					<dim>192</dim>
					<dim>80</dim>
					<dim>80</dim>
				</port>
			</input>
			<output>
				<port id="1" precision="FP32" names="/model.4/cv2/act/Mul_output_0">
					<dim>1</dim>
					<dim>192</dim>
					<dim>80</dim>
					<dim>80</dim>
				</port>
			</output>
		</layer>
		<layer id="150" name="model.5.conv.weight_compressed" type="Const" version="opset1">
			<data element_type="f16" shape="384, 192, 3, 3" offset="2297896" size="1327104" />
			<output>
				<port id="0" precision="FP16">
					<dim>384</dim>
					<dim>192</dim>
					<dim>3</dim>
					<dim>3</dim>
				</port>
			</output>
		</layer>
		<layer id="151" name="model.5.conv.weight" type="Convert" version="opset1">
			<data destination_type="f32" />
			<rt_info>
				<attribute name="decompression" version="0" />
			</rt_info>
			<input>
				<port id="0" precision="FP16">
					<dim>384</dim>
					<dim>192</dim>
					<dim>3</dim>
					<dim>3</dim>
				</port>
			</input>
			<output>
				<port id="1" precision="FP32" names="model.5.conv.weight">
					<dim>384</dim>
					<dim>192</dim>
					<dim>3</dim>
					<dim>3</dim>
				</port>
			</output>
		</layer>
		<layer id="152" name="/model.5/conv/Conv/WithoutBiases" type="Convolution" version="opset1">
			<data strides="2, 2" dilations="1, 1" pads_begin="1, 1" pads_end="1, 1" auto_pad="explicit" />
			<input>
				<port id="0" precision="FP32">
					<dim>1</dim>
					<dim>192</dim>
					<dim>80</dim>
					<dim>80</dim>
				</port>
				<port id="1" precision="FP32">
					<dim>384</dim>
					<dim>192</dim>
					<dim>3</dim>
					<dim>3</dim>
				</port>
			</input>
			<output>
				<port id="2" precision="FP32">
					<dim>1</dim>
					<dim>384</dim>
					<dim>40</dim>
					<dim>40</dim>
				</port>
			</output>
		</layer>
		<layer id="153" name="Reshape_532_compressed" type="Const" version="opset1">
			<data element_type="f16" shape="1, 384, 1, 1" offset="3625000" size="768" />
			<output>
				<port id="0" precision="FP16">
					<dim>1</dim>
					<dim>384</dim>
					<dim>1</dim>
					<dim>1</dim>
				</port>
			</output>
		</layer>
		<layer id="154" name="Reshape_532" type="Convert" version="opset1">
			<data destination_type="f32" />
			<rt_info>
				<attribute name="decompression" version="0" />
			</rt_info>
			<input>
				<port id="0" precision="FP16">
					<dim>1</dim>
					<dim>384</dim>
					<dim>1</dim>
					<dim>1</dim>
				</port>
			</input>
			<output>
				<port id="1" precision="FP32">
					<dim>1</dim>
					<dim>384</dim>
					<dim>1</dim>
					<dim>1</dim>
				</port>
			</output>
		</layer>
		<layer id="155" name="/model.5/conv/Conv" type="Add" version="opset1">
			<data auto_broadcast="numpy" />
			<input>
				<port id="0" precision="FP32">
					<dim>1</dim>
					<dim>384</dim>
					<dim>40</dim>
					<dim>40</dim>
				</port>
				<port id="1" precision="FP32">
					<dim>1</dim>
					<dim>384</dim>
					<dim>1</dim>
					<dim>1</dim>
				</port>
			</input>
			<output>
				<port id="2" precision="FP32" names="/model.5/conv/Conv_output_0">
					<dim>1</dim>
					<dim>384</dim>
					<dim>40</dim>
					<dim>40</dim>
				</port>
			</output>
		</layer>
		<layer id="156" name="/model.5/act/Mul" type="Swish" version="opset4">
			<input>
				<port id="0" precision="FP32">
					<dim>1</dim>
					<dim>384</dim>
					<dim>40</dim>
					<dim>40</dim>
				</port>
			</input>
			<output>
				<port id="1" precision="FP32" names="/model.5/act/Mul_output_0">
					<dim>1</dim>
					<dim>384</dim>
					<dim>40</dim>
					<dim>40</dim>
				</port>
			</output>
		</layer>
		<layer id="157" name="model.6.cv1.conv.weight_compressed" type="Const" version="opset1">
			<data element_type="f16" shape="384, 384, 1, 1" offset="3625768" size="294912" />
			<output>
				<port id="0" precision="FP16">
					<dim>384</dim>
					<dim>384</dim>
					<dim>1</dim>
					<dim>1</dim>
				</port>
			</output>
		</layer>
		<layer id="158" name="model.6.cv1.conv.weight" type="Convert" version="opset1">
			<data destination_type="f32" />
			<rt_info>
				<attribute name="decompression" version="0" />
			</rt_info>
			<input>
				<port id="0" precision="FP16">
					<dim>384</dim>
					<dim>384</dim>
					<dim>1</dim>
					<dim>1</dim>
				</port>
			</input>
			<output>
				<port id="1" precision="FP32" names="model.6.cv1.conv.weight">
					<dim>384</dim>
					<dim>384</dim>
					<dim>1</dim>
					<dim>1</dim>
				</port>
			</output>
		</layer>
		<layer id="159" name="/model.6/cv1/conv/Conv/WithoutBiases" type="Convolution" version="opset1">
			<data strides="1, 1" dilations="1, 1" pads_begin="0, 0" pads_end="0, 0" auto_pad="explicit" />
			<input>
				<port id="0" precision="FP32">
					<dim>1</dim>
					<dim>384</dim>
					<dim>40</dim>
					<dim>40</dim>
				</port>
				<port id="1" precision="FP32">
					<dim>384</dim>
					<dim>384</dim>
					<dim>1</dim>
					<dim>1</dim>
				</port>
			</input>
			<output>
				<port id="2" precision="FP32">
					<dim>1</dim>
					<dim>384</dim>
					<dim>40</dim>
					<dim>40</dim>
				</port>
			</output>
		</layer>
		<layer id="160" name="Reshape_549_compressed" type="Const" version="opset1">
			<data element_type="f16" shape="1, 384, 1, 1" offset="3920680" size="768" />
			<output>
				<port id="0" precision="FP16">
					<dim>1</dim>
					<dim>384</dim>
					<dim>1</dim>
					<dim>1</dim>
				</port>
			</output>
		</layer>
		<layer id="161" name="Reshape_549" type="Convert" version="opset1">
			<data destination_type="f32" />
			<rt_info>
				<attribute name="decompression" version="0" />
			</rt_info>
			<input>
				<port id="0" precision="FP16">
					<dim>1</dim>
					<dim>384</dim>
					<dim>1</dim>
					<dim>1</dim>
				</port>
			</input>
			<output>
				<port id="1" precision="FP32">
					<dim>1</dim>
					<dim>384</dim>
					<dim>1</dim>
					<dim>1</dim>
				</port>
			</output>
		</layer>
		<layer id="162" name="/model.6/cv1/conv/Conv" type="Add" version="opset1">
			<data auto_broadcast="numpy" />
			<input>
				<port id="0" precision="FP32">
					<dim>1</dim>
					<dim>384</dim>
					<dim>40</dim>
					<dim>40</dim>
				</port>
				<port id="1" precision="FP32">
					<dim>1</dim>
					<dim>384</dim>
					<dim>1</dim>
					<dim>1</dim>
				</port>
			</input>
			<output>
				<port id="2" precision="FP32" names="/model.6/cv1/conv/Conv_output_0">
					<dim>1</dim>
					<dim>384</dim>
					<dim>40</dim>
					<dim>40</dim>
				</port>
			</output>
		</layer>
		<layer id="163" name="/model.6/cv1/act/Mul" type="Swish" version="opset4">
			<input>
				<port id="0" precision="FP32">
					<dim>1</dim>
					<dim>384</dim>
					<dim>40</dim>
					<dim>40</dim>
				</port>
			</input>
			<output>
				<port id="1" precision="FP32" names="/model.6/cv1/act/Mul_output_0">
					<dim>1</dim>
					<dim>384</dim>
					<dim>40</dim>
					<dim>40</dim>
				</port>
			</output>
		</layer>
		<layer id="164" name="Constant_555" type="Const" version="opset1">
			<data element_type="i64" shape="" offset="138048" size="8" />
			<output>
				<port id="0" precision="I64" />
			</output>
		</layer>
		<layer id="165" name="onnx::Split_245" type="Const" version="opset1">
			<data element_type="i64" shape="2" offset="3921448" size="16" />
			<output>
				<port id="0" precision="I64" names="onnx::Split_245">
					<dim>2</dim>
				</port>
			</output>
		</layer>
		<layer id="166" name="/model.6/Split" type="VariadicSplit" version="opset1">
			<input>
				<port id="0" precision="FP32">
					<dim>1</dim>
					<dim>384</dim>
					<dim>40</dim>
					<dim>40</dim>
				</port>
				<port id="1" precision="I64" />
				<port id="2" precision="I64">
					<dim>2</dim>
				</port>
			</input>
			<output>
				<port id="3" precision="FP32" names="/model.6/Split_output_0">
					<dim>1</dim>
					<dim>192</dim>
					<dim>40</dim>
					<dim>40</dim>
				</port>
				<port id="4" precision="FP32" names="/model.6/Split_output_1">
					<dim>1</dim>
					<dim>192</dim>
					<dim>40</dim>
					<dim>40</dim>
				</port>
			</output>
		</layer>
		<layer id="167" name="model.6.m.0.cv1.conv.weight_compressed" type="Const" version="opset1">
			<data element_type="f16" shape="192, 192, 3, 3" offset="3921464" size="663552" />
			<output>
				<port id="0" precision="FP16">
					<dim>192</dim>
					<dim>192</dim>
					<dim>3</dim>
					<dim>3</dim>
				</port>
			</output>
		</layer>
		<layer id="168" name="model.6.m.0.cv1.conv.weight" type="Convert" version="opset1">
			<data destination_type="f32" />
			<rt_info>
				<attribute name="decompression" version="0" />
			</rt_info>
			<input>
				<port id="0" precision="FP16">
					<dim>192</dim>
					<dim>192</dim>
					<dim>3</dim>
					<dim>3</dim>
				</port>
			</input>
			<output>
				<port id="1" precision="FP32" names="model.6.m.0.cv1.conv.weight">
					<dim>192</dim>
					<dim>192</dim>
					<dim>3</dim>
					<dim>3</dim>
				</port>
			</output>
		</layer>
		<layer id="169" name="/model.6/m.0/cv1/conv/Conv/WithoutBiases" type="Convolution" version="opset1">
			<data strides="1, 1" dilations="1, 1" pads_begin="1, 1" pads_end="1, 1" auto_pad="explicit" />
			<input>
				<port id="0" precision="FP32">
					<dim>1</dim>
					<dim>192</dim>
					<dim>40</dim>
					<dim>40</dim>
				</port>
				<port id="1" precision="FP32">
					<dim>192</dim>
					<dim>192</dim>
					<dim>3</dim>
					<dim>3</dim>
				</port>
			</input>
			<output>
				<port id="2" precision="FP32">
					<dim>1</dim>
					<dim>192</dim>
					<dim>40</dim>
					<dim>40</dim>
				</port>
			</output>
		</layer>
		<layer id="170" name="Reshape_568_compressed" type="Const" version="opset1">
			<data element_type="f16" shape="1, 192, 1, 1" offset="4585016" size="384" />
			<output>
				<port id="0" precision="FP16">
					<dim>1</dim>
					<dim>192</dim>
					<dim>1</dim>
					<dim>1</dim>
				</port>
			</output>
		</layer>
		<layer id="171" name="Reshape_568" type="Convert" version="opset1">
			<data destination_type="f32" />
			<rt_info>
				<attribute name="decompression" version="0" />
			</rt_info>
			<input>
				<port id="0" precision="FP16">
					<dim>1</dim>
					<dim>192</dim>
					<dim>1</dim>
					<dim>1</dim>
				</port>
			</input>
			<output>
				<port id="1" precision="FP32">
					<dim>1</dim>
					<dim>192</dim>
					<dim>1</dim>
					<dim>1</dim>
				</port>
			</output>
		</layer>
		<layer id="172" name="/model.6/m.0/cv1/conv/Conv" type="Add" version="opset1">
			<data auto_broadcast="numpy" />
			<input>
				<port id="0" precision="FP32">
					<dim>1</dim>
					<dim>192</dim>
					<dim>40</dim>
					<dim>40</dim>
				</port>
				<port id="1" precision="FP32">
					<dim>1</dim>
					<dim>192</dim>
					<dim>1</dim>
					<dim>1</dim>
				</port>
			</input>
			<output>
				<port id="2" precision="FP32" names="/model.6/m.0/cv1/conv/Conv_output_0">
					<dim>1</dim>
					<dim>192</dim>
					<dim>40</dim>
					<dim>40</dim>
				</port>
			</output>
		</layer>
		<layer id="173" name="/model.6/m.0/cv1/act/Mul" type="Swish" version="opset4">
			<input>
				<port id="0" precision="FP32">
					<dim>1</dim>
					<dim>192</dim>
					<dim>40</dim>
					<dim>40</dim>
				</port>
			</input>
			<output>
				<port id="1" precision="FP32" names="/model.6/m.0/cv1/act/Mul_output_0">
					<dim>1</dim>
					<dim>192</dim>
					<dim>40</dim>
					<dim>40</dim>
				</port>
			</output>
		</layer>
		<layer id="174" name="model.6.m.0.cv2.conv.weight_compressed" type="Const" version="opset1">
			<data element_type="f16" shape="192, 192, 3, 3" offset="4585400" size="663552" />
			<output>
				<port id="0" precision="FP16">
					<dim>192</dim>
					<dim>192</dim>
					<dim>3</dim>
					<dim>3</dim>
				</port>
			</output>
		</layer>
		<layer id="175" name="model.6.m.0.cv2.conv.weight" type="Convert" version="opset1">
			<data destination_type="f32" />
			<rt_info>
				<attribute name="decompression" version="0" />
			</rt_info>
			<input>
				<port id="0" precision="FP16">
					<dim>192</dim>
					<dim>192</dim>
					<dim>3</dim>
					<dim>3</dim>
				</port>
			</input>
			<output>
				<port id="1" precision="FP32" names="model.6.m.0.cv2.conv.weight">
					<dim>192</dim>
					<dim>192</dim>
					<dim>3</dim>
					<dim>3</dim>
				</port>
			</output>
		</layer>
		<layer id="176" name="/model.6/m.0/cv2/conv/Conv/WithoutBiases" type="Convolution" version="opset1">
			<data strides="1, 1" dilations="1, 1" pads_begin="1, 1" pads_end="1, 1" auto_pad="explicit" />
			<input>
				<port id="0" precision="FP32">
					<dim>1</dim>
					<dim>192</dim>
					<dim>40</dim>
					<dim>40</dim>
				</port>
				<port id="1" precision="FP32">
					<dim>192</dim>
					<dim>192</dim>
					<dim>3</dim>
					<dim>3</dim>
				</port>
			</input>
			<output>
				<port id="2" precision="FP32">
					<dim>1</dim>
					<dim>192</dim>
					<dim>40</dim>
					<dim>40</dim>
				</port>
			</output>
		</layer>
		<layer id="177" name="Reshape_585_compressed" type="Const" version="opset1">
			<data element_type="f16" shape="1, 192, 1, 1" offset="5248952" size="384" />
			<output>
				<port id="0" precision="FP16">
					<dim>1</dim>
					<dim>192</dim>
					<dim>1</dim>
					<dim>1</dim>
				</port>
			</output>
		</layer>
		<layer id="178" name="Reshape_585" type="Convert" version="opset1">
			<data destination_type="f32" />
			<rt_info>
				<attribute name="decompression" version="0" />
			</rt_info>
			<input>
				<port id="0" precision="FP16">
					<dim>1</dim>
					<dim>192</dim>
					<dim>1</dim>
					<dim>1</dim>
				</port>
			</input>
			<output>
				<port id="1" precision="FP32">
					<dim>1</dim>
					<dim>192</dim>
					<dim>1</dim>
					<dim>1</dim>
				</port>
			</output>
		</layer>
		<layer id="179" name="/model.6/m.0/cv2/conv/Conv" type="Add" version="opset1">
			<data auto_broadcast="numpy" />
			<input>
				<port id="0" precision="FP32">
					<dim>1</dim>
					<dim>192</dim>
					<dim>40</dim>
					<dim>40</dim>
				</port>
				<port id="1" precision="FP32">
					<dim>1</dim>
					<dim>192</dim>
					<dim>1</dim>
					<dim>1</dim>
				</port>
			</input>
			<output>
				<port id="2" precision="FP32" names="/model.6/m.0/cv2/conv/Conv_output_0">
					<dim>1</dim>
					<dim>192</dim>
					<dim>40</dim>
					<dim>40</dim>
				</port>
			</output>
		</layer>
		<layer id="180" name="/model.6/m.0/cv2/act/Mul" type="Swish" version="opset4">
			<input>
				<port id="0" precision="FP32">
					<dim>1</dim>
					<dim>192</dim>
					<dim>40</dim>
					<dim>40</dim>
				</port>
			</input>
			<output>
				<port id="1" precision="FP32" names="/model.6/m.0/cv2/act/Mul_output_0">
					<dim>1</dim>
					<dim>192</dim>
					<dim>40</dim>
					<dim>40</dim>
				</port>
			</output>
		</layer>
		<layer id="181" name="/model.6/m.0/Add" type="Add" version="opset1">
			<data auto_broadcast="numpy" />
			<input>
				<port id="0" precision="FP32">
					<dim>1</dim>
					<dim>192</dim>
					<dim>40</dim>
					<dim>40</dim>
				</port>
				<port id="1" precision="FP32">
					<dim>1</dim>
					<dim>192</dim>
					<dim>40</dim>
					<dim>40</dim>
				</port>
			</input>
			<output>
				<port id="2" precision="FP32" names="/model.6/m.0/Add_output_0">
					<dim>1</dim>
					<dim>192</dim>
					<dim>40</dim>
					<dim>40</dim>
				</port>
			</output>
		</layer>
		<layer id="182" name="model.6.m.1.cv1.conv.weight_compressed" type="Const" version="opset1">
			<data element_type="f16" shape="192, 192, 3, 3" offset="5249336" size="663552" />
			<output>
				<port id="0" precision="FP16">
					<dim>192</dim>
					<dim>192</dim>
					<dim>3</dim>
					<dim>3</dim>
				</port>
			</output>
		</layer>
		<layer id="183" name="model.6.m.1.cv1.conv.weight" type="Convert" version="opset1">
			<data destination_type="f32" />
			<rt_info>
				<attribute name="decompression" version="0" />
			</rt_info>
			<input>
				<port id="0" precision="FP16">
					<dim>192</dim>
					<dim>192</dim>
					<dim>3</dim>
					<dim>3</dim>
				</port>
			</input>
			<output>
				<port id="1" precision="FP32" names="model.6.m.1.cv1.conv.weight">
					<dim>192</dim>
					<dim>192</dim>
					<dim>3</dim>
					<dim>3</dim>
				</port>
			</output>
		</layer>
		<layer id="184" name="/model.6/m.1/cv1/conv/Conv/WithoutBiases" type="Convolution" version="opset1">
			<data strides="1, 1" dilations="1, 1" pads_begin="1, 1" pads_end="1, 1" auto_pad="explicit" />
			<input>
				<port id="0" precision="FP32">
					<dim>1</dim>
					<dim>192</dim>
					<dim>40</dim>
					<dim>40</dim>
				</port>
				<port id="1" precision="FP32">
					<dim>192</dim>
					<dim>192</dim>
					<dim>3</dim>
					<dim>3</dim>
				</port>
			</input>
			<output>
				<port id="2" precision="FP32">
					<dim>1</dim>
					<dim>192</dim>
					<dim>40</dim>
					<dim>40</dim>
				</port>
			</output>
		</layer>
		<layer id="185" name="Reshape_603_compressed" type="Const" version="opset1">
			<data element_type="f16" shape="1, 192, 1, 1" offset="5912888" size="384" />
			<output>
				<port id="0" precision="FP16">
					<dim>1</dim>
					<dim>192</dim>
					<dim>1</dim>
					<dim>1</dim>
				</port>
			</output>
		</layer>
		<layer id="186" name="Reshape_603" type="Convert" version="opset1">
			<data destination_type="f32" />
			<rt_info>
				<attribute name="decompression" version="0" />
			</rt_info>
			<input>
				<port id="0" precision="FP16">
					<dim>1</dim>
					<dim>192</dim>
					<dim>1</dim>
					<dim>1</dim>
				</port>
			</input>
			<output>
				<port id="1" precision="FP32">
					<dim>1</dim>
					<dim>192</dim>
					<dim>1</dim>
					<dim>1</dim>
				</port>
			</output>
		</layer>
		<layer id="187" name="/model.6/m.1/cv1/conv/Conv" type="Add" version="opset1">
			<data auto_broadcast="numpy" />
			<input>
				<port id="0" precision="FP32">
					<dim>1</dim>
					<dim>192</dim>
					<dim>40</dim>
					<dim>40</dim>
				</port>
				<port id="1" precision="FP32">
					<dim>1</dim>
					<dim>192</dim>
					<dim>1</dim>
					<dim>1</dim>
				</port>
			</input>
			<output>
				<port id="2" precision="FP32" names="/model.6/m.1/cv1/conv/Conv_output_0">
					<dim>1</dim>
					<dim>192</dim>
					<dim>40</dim>
					<dim>40</dim>
				</port>
			</output>
		</layer>
		<layer id="188" name="/model.6/m.1/cv1/act/Mul" type="Swish" version="opset4">
			<input>
				<port id="0" precision="FP32">
					<dim>1</dim>
					<dim>192</dim>
					<dim>40</dim>
					<dim>40</dim>
				</port>
			</input>
			<output>
				<port id="1" precision="FP32" names="/model.6/m.1/cv1/act/Mul_output_0">
					<dim>1</dim>
					<dim>192</dim>
					<dim>40</dim>
					<dim>40</dim>
				</port>
			</output>
		</layer>
		<layer id="189" name="model.6.m.1.cv2.conv.weight_compressed" type="Const" version="opset1">
			<data element_type="f16" shape="192, 192, 3, 3" offset="5913272" size="663552" />
			<output>
				<port id="0" precision="FP16">
					<dim>192</dim>
					<dim>192</dim>
					<dim>3</dim>
					<dim>3</dim>
				</port>
			</output>
		</layer>
		<layer id="190" name="model.6.m.1.cv2.conv.weight" type="Convert" version="opset1">
			<data destination_type="f32" />
			<rt_info>
				<attribute name="decompression" version="0" />
			</rt_info>
			<input>
				<port id="0" precision="FP16">
					<dim>192</dim>
					<dim>192</dim>
					<dim>3</dim>
					<dim>3</dim>
				</port>
			</input>
			<output>
				<port id="1" precision="FP32" names="model.6.m.1.cv2.conv.weight">
					<dim>192</dim>
					<dim>192</dim>
					<dim>3</dim>
					<dim>3</dim>
				</port>
			</output>
		</layer>
		<layer id="191" name="/model.6/m.1/cv2/conv/Conv/WithoutBiases" type="Convolution" version="opset1">
			<data strides="1, 1" dilations="1, 1" pads_begin="1, 1" pads_end="1, 1" auto_pad="explicit" />
			<input>
				<port id="0" precision="FP32">
					<dim>1</dim>
					<dim>192</dim>
					<dim>40</dim>
					<dim>40</dim>
				</port>
				<port id="1" precision="FP32">
					<dim>192</dim>
					<dim>192</dim>
					<dim>3</dim>
					<dim>3</dim>
				</port>
			</input>
			<output>
				<port id="2" precision="FP32">
					<dim>1</dim>
					<dim>192</dim>
					<dim>40</dim>
					<dim>40</dim>
				</port>
			</output>
		</layer>
		<layer id="192" name="Reshape_620_compressed" type="Const" version="opset1">
			<data element_type="f16" shape="1, 192, 1, 1" offset="6576824" size="384" />
			<output>
				<port id="0" precision="FP16">
					<dim>1</dim>
					<dim>192</dim>
					<dim>1</dim>
					<dim>1</dim>
				</port>
			</output>
		</layer>
		<layer id="193" name="Reshape_620" type="Convert" version="opset1">
			<data destination_type="f32" />
			<rt_info>
				<attribute name="decompression" version="0" />
			</rt_info>
			<input>
				<port id="0" precision="FP16">
					<dim>1</dim>
					<dim>192</dim>
					<dim>1</dim>
					<dim>1</dim>
				</port>
			</input>
			<output>
				<port id="1" precision="FP32">
					<dim>1</dim>
					<dim>192</dim>
					<dim>1</dim>
					<dim>1</dim>
				</port>
			</output>
		</layer>
		<layer id="194" name="/model.6/m.1/cv2/conv/Conv" type="Add" version="opset1">
			<data auto_broadcast="numpy" />
			<input>
				<port id="0" precision="FP32">
					<dim>1</dim>
					<dim>192</dim>
					<dim>40</dim>
					<dim>40</dim>
				</port>
				<port id="1" precision="FP32">
					<dim>1</dim>
					<dim>192</dim>
					<dim>1</dim>
					<dim>1</dim>
				</port>
			</input>
			<output>
				<port id="2" precision="FP32" names="/model.6/m.1/cv2/conv/Conv_output_0">
					<dim>1</dim>
					<dim>192</dim>
					<dim>40</dim>
					<dim>40</dim>
				</port>
			</output>
		</layer>
		<layer id="195" name="/model.6/m.1/cv2/act/Mul" type="Swish" version="opset4">
			<input>
				<port id="0" precision="FP32">
					<dim>1</dim>
					<dim>192</dim>
					<dim>40</dim>
					<dim>40</dim>
				</port>
			</input>
			<output>
				<port id="1" precision="FP32" names="/model.6/m.1/cv2/act/Mul_output_0">
					<dim>1</dim>
					<dim>192</dim>
					<dim>40</dim>
					<dim>40</dim>
				</port>
			</output>
		</layer>
		<layer id="196" name="/model.6/m.1/Add" type="Add" version="opset1">
			<data auto_broadcast="numpy" />
			<input>
				<port id="0" precision="FP32">
					<dim>1</dim>
					<dim>192</dim>
					<dim>40</dim>
					<dim>40</dim>
				</port>
				<port id="1" precision="FP32">
					<dim>1</dim>
					<dim>192</dim>
					<dim>40</dim>
					<dim>40</dim>
				</port>
			</input>
			<output>
				<port id="2" precision="FP32" names="/model.6/m.1/Add_output_0">
					<dim>1</dim>
					<dim>192</dim>
					<dim>40</dim>
					<dim>40</dim>
				</port>
			</output>
		</layer>
		<layer id="197" name="model.6.m.2.cv1.conv.weight_compressed" type="Const" version="opset1">
			<data element_type="f16" shape="192, 192, 3, 3" offset="6577208" size="663552" />
			<output>
				<port id="0" precision="FP16">
					<dim>192</dim>
					<dim>192</dim>
					<dim>3</dim>
					<dim>3</dim>
				</port>
			</output>
		</layer>
		<layer id="198" name="model.6.m.2.cv1.conv.weight" type="Convert" version="opset1">
			<data destination_type="f32" />
			<rt_info>
				<attribute name="decompression" version="0" />
			</rt_info>
			<input>
				<port id="0" precision="FP16">
					<dim>192</dim>
					<dim>192</dim>
					<dim>3</dim>
					<dim>3</dim>
				</port>
			</input>
			<output>
				<port id="1" precision="FP32" names="model.6.m.2.cv1.conv.weight">
					<dim>192</dim>
					<dim>192</dim>
					<dim>3</dim>
					<dim>3</dim>
				</port>
			</output>
		</layer>
		<layer id="199" name="/model.6/m.2/cv1/conv/Conv/WithoutBiases" type="Convolution" version="opset1">
			<data strides="1, 1" dilations="1, 1" pads_begin="1, 1" pads_end="1, 1" auto_pad="explicit" />
			<input>
				<port id="0" precision="FP32">
					<dim>1</dim>
					<dim>192</dim>
					<dim>40</dim>
					<dim>40</dim>
				</port>
				<port id="1" precision="FP32">
					<dim>192</dim>
					<dim>192</dim>
					<dim>3</dim>
					<dim>3</dim>
				</port>
			</input>
			<output>
				<port id="2" precision="FP32">
					<dim>1</dim>
					<dim>192</dim>
					<dim>40</dim>
					<dim>40</dim>
				</port>
			</output>
		</layer>
		<layer id="200" name="Reshape_638_compressed" type="Const" version="opset1">
			<data element_type="f16" shape="1, 192, 1, 1" offset="7240760" size="384" />
			<output>
				<port id="0" precision="FP16">
					<dim>1</dim>
					<dim>192</dim>
					<dim>1</dim>
					<dim>1</dim>
				</port>
			</output>
		</layer>
		<layer id="201" name="Reshape_638" type="Convert" version="opset1">
			<data destination_type="f32" />
			<rt_info>
				<attribute name="decompression" version="0" />
			</rt_info>
			<input>
				<port id="0" precision="FP16">
					<dim>1</dim>
					<dim>192</dim>
					<dim>1</dim>
					<dim>1</dim>
				</port>
			</input>
			<output>
				<port id="1" precision="FP32">
					<dim>1</dim>
					<dim>192</dim>
					<dim>1</dim>
					<dim>1</dim>
				</port>
			</output>
		</layer>
		<layer id="202" name="/model.6/m.2/cv1/conv/Conv" type="Add" version="opset1">
			<data auto_broadcast="numpy" />
			<input>
				<port id="0" precision="FP32">
					<dim>1</dim>
					<dim>192</dim>
					<dim>40</dim>
					<dim>40</dim>
				</port>
				<port id="1" precision="FP32">
					<dim>1</dim>
					<dim>192</dim>
					<dim>1</dim>
					<dim>1</dim>
				</port>
			</input>
			<output>
				<port id="2" precision="FP32" names="/model.6/m.2/cv1/conv/Conv_output_0">
					<dim>1</dim>
					<dim>192</dim>
					<dim>40</dim>
					<dim>40</dim>
				</port>
			</output>
		</layer>
		<layer id="203" name="/model.6/m.2/cv1/act/Mul" type="Swish" version="opset4">
			<input>
				<port id="0" precision="FP32">
					<dim>1</dim>
					<dim>192</dim>
					<dim>40</dim>
					<dim>40</dim>
				</port>
			</input>
			<output>
				<port id="1" precision="FP32" names="/model.6/m.2/cv1/act/Mul_output_0">
					<dim>1</dim>
					<dim>192</dim>
					<dim>40</dim>
					<dim>40</dim>
				</port>
			</output>
		</layer>
		<layer id="204" name="model.6.m.2.cv2.conv.weight_compressed" type="Const" version="opset1">
			<data element_type="f16" shape="192, 192, 3, 3" offset="7241144" size="663552" />
			<output>
				<port id="0" precision="FP16">
					<dim>192</dim>
					<dim>192</dim>
					<dim>3</dim>
					<dim>3</dim>
				</port>
			</output>
		</layer>
		<layer id="205" name="model.6.m.2.cv2.conv.weight" type="Convert" version="opset1">
			<data destination_type="f32" />
			<rt_info>
				<attribute name="decompression" version="0" />
			</rt_info>
			<input>
				<port id="0" precision="FP16">
					<dim>192</dim>
					<dim>192</dim>
					<dim>3</dim>
					<dim>3</dim>
				</port>
			</input>
			<output>
				<port id="1" precision="FP32" names="model.6.m.2.cv2.conv.weight">
					<dim>192</dim>
					<dim>192</dim>
					<dim>3</dim>
					<dim>3</dim>
				</port>
			</output>
		</layer>
		<layer id="206" name="/model.6/m.2/cv2/conv/Conv/WithoutBiases" type="Convolution" version="opset1">
			<data strides="1, 1" dilations="1, 1" pads_begin="1, 1" pads_end="1, 1" auto_pad="explicit" />
			<input>
				<port id="0" precision="FP32">
					<dim>1</dim>
					<dim>192</dim>
					<dim>40</dim>
					<dim>40</dim>
				</port>
				<port id="1" precision="FP32">
					<dim>192</dim>
					<dim>192</dim>
					<dim>3</dim>
					<dim>3</dim>
				</port>
			</input>
			<output>
				<port id="2" precision="FP32">
					<dim>1</dim>
					<dim>192</dim>
					<dim>40</dim>
					<dim>40</dim>
				</port>
			</output>
		</layer>
		<layer id="207" name="Reshape_655_compressed" type="Const" version="opset1">
			<data element_type="f16" shape="1, 192, 1, 1" offset="7904696" size="384" />
			<output>
				<port id="0" precision="FP16">
					<dim>1</dim>
					<dim>192</dim>
					<dim>1</dim>
					<dim>1</dim>
				</port>
			</output>
		</layer>
		<layer id="208" name="Reshape_655" type="Convert" version="opset1">
			<data destination_type="f32" />
			<rt_info>
				<attribute name="decompression" version="0" />
			</rt_info>
			<input>
				<port id="0" precision="FP16">
					<dim>1</dim>
					<dim>192</dim>
					<dim>1</dim>
					<dim>1</dim>
				</port>
			</input>
			<output>
				<port id="1" precision="FP32">
					<dim>1</dim>
					<dim>192</dim>
					<dim>1</dim>
					<dim>1</dim>
				</port>
			</output>
		</layer>
		<layer id="209" name="/model.6/m.2/cv2/conv/Conv" type="Add" version="opset1">
			<data auto_broadcast="numpy" />
			<input>
				<port id="0" precision="FP32">
					<dim>1</dim>
					<dim>192</dim>
					<dim>40</dim>
					<dim>40</dim>
				</port>
				<port id="1" precision="FP32">
					<dim>1</dim>
					<dim>192</dim>
					<dim>1</dim>
					<dim>1</dim>
				</port>
			</input>
			<output>
				<port id="2" precision="FP32" names="/model.6/m.2/cv2/conv/Conv_output_0">
					<dim>1</dim>
					<dim>192</dim>
					<dim>40</dim>
					<dim>40</dim>
				</port>
			</output>
		</layer>
		<layer id="210" name="/model.6/m.2/cv2/act/Mul" type="Swish" version="opset4">
			<input>
				<port id="0" precision="FP32">
					<dim>1</dim>
					<dim>192</dim>
					<dim>40</dim>
					<dim>40</dim>
				</port>
			</input>
			<output>
				<port id="1" precision="FP32" names="/model.6/m.2/cv2/act/Mul_output_0">
					<dim>1</dim>
					<dim>192</dim>
					<dim>40</dim>
					<dim>40</dim>
				</port>
			</output>
		</layer>
		<layer id="211" name="/model.6/m.2/Add" type="Add" version="opset1">
			<data auto_broadcast="numpy" />
			<input>
				<port id="0" precision="FP32">
					<dim>1</dim>
					<dim>192</dim>
					<dim>40</dim>
					<dim>40</dim>
				</port>
				<port id="1" precision="FP32">
					<dim>1</dim>
					<dim>192</dim>
					<dim>40</dim>
					<dim>40</dim>
				</port>
			</input>
			<output>
				<port id="2" precision="FP32" names="/model.6/m.2/Add_output_0">
					<dim>1</dim>
					<dim>192</dim>
					<dim>40</dim>
					<dim>40</dim>
				</port>
			</output>
		</layer>
		<layer id="212" name="model.6.m.3.cv1.conv.weight_compressed" type="Const" version="opset1">
			<data element_type="f16" shape="192, 192, 3, 3" offset="7905080" size="663552" />
			<output>
				<port id="0" precision="FP16">
					<dim>192</dim>
					<dim>192</dim>
					<dim>3</dim>
					<dim>3</dim>
				</port>
			</output>
		</layer>
		<layer id="213" name="model.6.m.3.cv1.conv.weight" type="Convert" version="opset1">
			<data destination_type="f32" />
			<rt_info>
				<attribute name="decompression" version="0" />
			</rt_info>
			<input>
				<port id="0" precision="FP16">
					<dim>192</dim>
					<dim>192</dim>
					<dim>3</dim>
					<dim>3</dim>
				</port>
			</input>
			<output>
				<port id="1" precision="FP32" names="model.6.m.3.cv1.conv.weight">
					<dim>192</dim>
					<dim>192</dim>
					<dim>3</dim>
					<dim>3</dim>
				</port>
			</output>
		</layer>
		<layer id="214" name="/model.6/m.3/cv1/conv/Conv/WithoutBiases" type="Convolution" version="opset1">
			<data strides="1, 1" dilations="1, 1" pads_begin="1, 1" pads_end="1, 1" auto_pad="explicit" />
			<input>
				<port id="0" precision="FP32">
					<dim>1</dim>
					<dim>192</dim>
					<dim>40</dim>
					<dim>40</dim>
				</port>
				<port id="1" precision="FP32">
					<dim>192</dim>
					<dim>192</dim>
					<dim>3</dim>
					<dim>3</dim>
				</port>
			</input>
			<output>
				<port id="2" precision="FP32">
					<dim>1</dim>
					<dim>192</dim>
					<dim>40</dim>
					<dim>40</dim>
				</port>
			</output>
		</layer>
		<layer id="215" name="Reshape_673_compressed" type="Const" version="opset1">
			<data element_type="f16" shape="1, 192, 1, 1" offset="8568632" size="384" />
			<output>
				<port id="0" precision="FP16">
					<dim>1</dim>
					<dim>192</dim>
					<dim>1</dim>
					<dim>1</dim>
				</port>
			</output>
		</layer>
		<layer id="216" name="Reshape_673" type="Convert" version="opset1">
			<data destination_type="f32" />
			<rt_info>
				<attribute name="decompression" version="0" />
			</rt_info>
			<input>
				<port id="0" precision="FP16">
					<dim>1</dim>
					<dim>192</dim>
					<dim>1</dim>
					<dim>1</dim>
				</port>
			</input>
			<output>
				<port id="1" precision="FP32">
					<dim>1</dim>
					<dim>192</dim>
					<dim>1</dim>
					<dim>1</dim>
				</port>
			</output>
		</layer>
		<layer id="217" name="/model.6/m.3/cv1/conv/Conv" type="Add" version="opset1">
			<data auto_broadcast="numpy" />
			<input>
				<port id="0" precision="FP32">
					<dim>1</dim>
					<dim>192</dim>
					<dim>40</dim>
					<dim>40</dim>
				</port>
				<port id="1" precision="FP32">
					<dim>1</dim>
					<dim>192</dim>
					<dim>1</dim>
					<dim>1</dim>
				</port>
			</input>
			<output>
				<port id="2" precision="FP32" names="/model.6/m.3/cv1/conv/Conv_output_0">
					<dim>1</dim>
					<dim>192</dim>
					<dim>40</dim>
					<dim>40</dim>
				</port>
			</output>
		</layer>
		<layer id="218" name="/model.6/m.3/cv1/act/Mul" type="Swish" version="opset4">
			<input>
				<port id="0" precision="FP32">
					<dim>1</dim>
					<dim>192</dim>
					<dim>40</dim>
					<dim>40</dim>
				</port>
			</input>
			<output>
				<port id="1" precision="FP32" names="/model.6/m.3/cv1/act/Mul_output_0">
					<dim>1</dim>
					<dim>192</dim>
					<dim>40</dim>
					<dim>40</dim>
				</port>
			</output>
		</layer>
		<layer id="219" name="model.6.m.3.cv2.conv.weight_compressed" type="Const" version="opset1">
			<data element_type="f16" shape="192, 192, 3, 3" offset="8569016" size="663552" />
			<output>
				<port id="0" precision="FP16">
					<dim>192</dim>
					<dim>192</dim>
					<dim>3</dim>
					<dim>3</dim>
				</port>
			</output>
		</layer>
		<layer id="220" name="model.6.m.3.cv2.conv.weight" type="Convert" version="opset1">
			<data destination_type="f32" />
			<rt_info>
				<attribute name="decompression" version="0" />
			</rt_info>
			<input>
				<port id="0" precision="FP16">
					<dim>192</dim>
					<dim>192</dim>
					<dim>3</dim>
					<dim>3</dim>
				</port>
			</input>
			<output>
				<port id="1" precision="FP32" names="model.6.m.3.cv2.conv.weight">
					<dim>192</dim>
					<dim>192</dim>
					<dim>3</dim>
					<dim>3</dim>
				</port>
			</output>
		</layer>
		<layer id="221" name="/model.6/m.3/cv2/conv/Conv/WithoutBiases" type="Convolution" version="opset1">
			<data strides="1, 1" dilations="1, 1" pads_begin="1, 1" pads_end="1, 1" auto_pad="explicit" />
			<input>
				<port id="0" precision="FP32">
					<dim>1</dim>
					<dim>192</dim>
					<dim>40</dim>
					<dim>40</dim>
				</port>
				<port id="1" precision="FP32">
					<dim>192</dim>
					<dim>192</dim>
					<dim>3</dim>
					<dim>3</dim>
				</port>
			</input>
			<output>
				<port id="2" precision="FP32">
					<dim>1</dim>
					<dim>192</dim>
					<dim>40</dim>
					<dim>40</dim>
				</port>
			</output>
		</layer>
		<layer id="222" name="Reshape_690_compressed" type="Const" version="opset1">
			<data element_type="f16" shape="1, 192, 1, 1" offset="9232568" size="384" />
			<output>
				<port id="0" precision="FP16">
					<dim>1</dim>
					<dim>192</dim>
					<dim>1</dim>
					<dim>1</dim>
				</port>
			</output>
		</layer>
		<layer id="223" name="Reshape_690" type="Convert" version="opset1">
			<data destination_type="f32" />
			<rt_info>
				<attribute name="decompression" version="0" />
			</rt_info>
			<input>
				<port id="0" precision="FP16">
					<dim>1</dim>
					<dim>192</dim>
					<dim>1</dim>
					<dim>1</dim>
				</port>
			</input>
			<output>
				<port id="1" precision="FP32">
					<dim>1</dim>
					<dim>192</dim>
					<dim>1</dim>
					<dim>1</dim>
				</port>
			</output>
		</layer>
		<layer id="224" name="/model.6/m.3/cv2/conv/Conv" type="Add" version="opset1">
			<data auto_broadcast="numpy" />
			<input>
				<port id="0" precision="FP32">
					<dim>1</dim>
					<dim>192</dim>
					<dim>40</dim>
					<dim>40</dim>
				</port>
				<port id="1" precision="FP32">
					<dim>1</dim>
					<dim>192</dim>
					<dim>1</dim>
					<dim>1</dim>
				</port>
			</input>
			<output>
				<port id="2" precision="FP32" names="/model.6/m.3/cv2/conv/Conv_output_0">
					<dim>1</dim>
					<dim>192</dim>
					<dim>40</dim>
					<dim>40</dim>
				</port>
			</output>
		</layer>
		<layer id="225" name="/model.6/m.3/cv2/act/Mul" type="Swish" version="opset4">
			<input>
				<port id="0" precision="FP32">
					<dim>1</dim>
					<dim>192</dim>
					<dim>40</dim>
					<dim>40</dim>
				</port>
			</input>
			<output>
				<port id="1" precision="FP32" names="/model.6/m.3/cv2/act/Mul_output_0">
					<dim>1</dim>
					<dim>192</dim>
					<dim>40</dim>
					<dim>40</dim>
				</port>
			</output>
		</layer>
		<layer id="226" name="/model.6/m.3/Add" type="Add" version="opset1">
			<data auto_broadcast="numpy" />
			<input>
				<port id="0" precision="FP32">
					<dim>1</dim>
					<dim>192</dim>
					<dim>40</dim>
					<dim>40</dim>
				</port>
				<port id="1" precision="FP32">
					<dim>1</dim>
					<dim>192</dim>
					<dim>40</dim>
					<dim>40</dim>
				</port>
			</input>
			<output>
				<port id="2" precision="FP32" names="/model.6/m.3/Add_output_0">
					<dim>1</dim>
					<dim>192</dim>
					<dim>40</dim>
					<dim>40</dim>
				</port>
			</output>
		</layer>
		<layer id="227" name="/model.6/Concat" type="Concat" version="opset1">
			<data axis="1" />
			<input>
				<port id="0" precision="FP32">
					<dim>1</dim>
					<dim>192</dim>
					<dim>40</dim>
					<dim>40</dim>
				</port>
				<port id="1" precision="FP32">
					<dim>1</dim>
					<dim>192</dim>
					<dim>40</dim>
					<dim>40</dim>
				</port>
				<port id="2" precision="FP32">
					<dim>1</dim>
					<dim>192</dim>
					<dim>40</dim>
					<dim>40</dim>
				</port>
				<port id="3" precision="FP32">
					<dim>1</dim>
					<dim>192</dim>
					<dim>40</dim>
					<dim>40</dim>
				</port>
				<port id="4" precision="FP32">
					<dim>1</dim>
					<dim>192</dim>
					<dim>40</dim>
					<dim>40</dim>
				</port>
				<port id="5" precision="FP32">
					<dim>1</dim>
					<dim>192</dim>
					<dim>40</dim>
					<dim>40</dim>
				</port>
			</input>
			<output>
				<port id="6" precision="FP32" names="/model.6/Concat_output_0">
					<dim>1</dim>
					<dim>1152</dim>
					<dim>40</dim>
					<dim>40</dim>
				</port>
			</output>
		</layer>
		<layer id="228" name="model.6.cv2.conv.weight_compressed" type="Const" version="opset1">
			<data element_type="f16" shape="384, 1152, 1, 1" offset="9232952" size="884736" />
			<output>
				<port id="0" precision="FP16">
					<dim>384</dim>
					<dim>1152</dim>
					<dim>1</dim>
					<dim>1</dim>
				</port>
			</output>
		</layer>
		<layer id="229" name="model.6.cv2.conv.weight" type="Convert" version="opset1">
			<data destination_type="f32" />
			<rt_info>
				<attribute name="decompression" version="0" />
			</rt_info>
			<input>
				<port id="0" precision="FP16">
					<dim>384</dim>
					<dim>1152</dim>
					<dim>1</dim>
					<dim>1</dim>
				</port>
			</input>
			<output>
				<port id="1" precision="FP32" names="model.6.cv2.conv.weight">
					<dim>384</dim>
					<dim>1152</dim>
					<dim>1</dim>
					<dim>1</dim>
				</port>
			</output>
		</layer>
		<layer id="230" name="/model.6/cv2/conv/Conv/WithoutBiases" type="Convolution" version="opset1">
			<data strides="1, 1" dilations="1, 1" pads_begin="0, 0" pads_end="0, 0" auto_pad="explicit" />
			<input>
				<port id="0" precision="FP32">
					<dim>1</dim>
					<dim>1152</dim>
					<dim>40</dim>
					<dim>40</dim>
				</port>
				<port id="1" precision="FP32">
					<dim>384</dim>
					<dim>1152</dim>
					<dim>1</dim>
					<dim>1</dim>
				</port>
			</input>
			<output>
				<port id="2" precision="FP32">
					<dim>1</dim>
					<dim>384</dim>
					<dim>40</dim>
					<dim>40</dim>
				</port>
			</output>
		</layer>
		<layer id="231" name="Reshape_709_compressed" type="Const" version="opset1">
			<data element_type="f16" shape="1, 384, 1, 1" offset="10117688" size="768" />
			<output>
				<port id="0" precision="FP16">
					<dim>1</dim>
					<dim>384</dim>
					<dim>1</dim>
					<dim>1</dim>
				</port>
			</output>
		</layer>
		<layer id="232" name="Reshape_709" type="Convert" version="opset1">
			<data destination_type="f32" />
			<rt_info>
				<attribute name="decompression" version="0" />
			</rt_info>
			<input>
				<port id="0" precision="FP16">
					<dim>1</dim>
					<dim>384</dim>
					<dim>1</dim>
					<dim>1</dim>
				</port>
			</input>
			<output>
				<port id="1" precision="FP32">
					<dim>1</dim>
					<dim>384</dim>
					<dim>1</dim>
					<dim>1</dim>
				</port>
			</output>
		</layer>
		<layer id="233" name="/model.6/cv2/conv/Conv" type="Add" version="opset1">
			<data auto_broadcast="numpy" />
			<input>
				<port id="0" precision="FP32">
					<dim>1</dim>
					<dim>384</dim>
					<dim>40</dim>
					<dim>40</dim>
				</port>
				<port id="1" precision="FP32">
					<dim>1</dim>
					<dim>384</dim>
					<dim>1</dim>
					<dim>1</dim>
				</port>
			</input>
			<output>
				<port id="2" precision="FP32" names="/model.6/cv2/conv/Conv_output_0">
					<dim>1</dim>
					<dim>384</dim>
					<dim>40</dim>
					<dim>40</dim>
				</port>
			</output>
		</layer>
		<layer id="234" name="/model.6/cv2/act/Mul" type="Swish" version="opset4">
			<input>
				<port id="0" precision="FP32">
					<dim>1</dim>
					<dim>384</dim>
					<dim>40</dim>
					<dim>40</dim>
				</port>
			</input>
			<output>
				<port id="1" precision="FP32" names="/model.6/cv2/act/Mul_output_0">
					<dim>1</dim>
					<dim>384</dim>
					<dim>40</dim>
					<dim>40</dim>
				</port>
			</output>
		</layer>
		<layer id="235" name="model.7.conv.weight_compressed" type="Const" version="opset1">
			<data element_type="f16" shape="576, 384, 3, 3" offset="10118456" size="3981312" />
			<output>
				<port id="0" precision="FP16">
					<dim>576</dim>
					<dim>384</dim>
					<dim>3</dim>
					<dim>3</dim>
				</port>
			</output>
		</layer>
		<layer id="236" name="model.7.conv.weight" type="Convert" version="opset1">
			<data destination_type="f32" />
			<rt_info>
				<attribute name="decompression" version="0" />
			</rt_info>
			<input>
				<port id="0" precision="FP16">
					<dim>576</dim>
					<dim>384</dim>
					<dim>3</dim>
					<dim>3</dim>
				</port>
			</input>
			<output>
				<port id="1" precision="FP32" names="model.7.conv.weight">
					<dim>576</dim>
					<dim>384</dim>
					<dim>3</dim>
					<dim>3</dim>
				</port>
			</output>
		</layer>
		<layer id="237" name="/model.7/conv/Conv/WithoutBiases" type="Convolution" version="opset1">
			<data strides="2, 2" dilations="1, 1" pads_begin="1, 1" pads_end="1, 1" auto_pad="explicit" />
			<input>
				<port id="0" precision="FP32">
					<dim>1</dim>
					<dim>384</dim>
					<dim>40</dim>
					<dim>40</dim>
				</port>
				<port id="1" precision="FP32">
					<dim>576</dim>
					<dim>384</dim>
					<dim>3</dim>
					<dim>3</dim>
				</port>
			</input>
			<output>
				<port id="2" precision="FP32">
					<dim>1</dim>
					<dim>576</dim>
					<dim>20</dim>
					<dim>20</dim>
				</port>
			</output>
		</layer>
		<layer id="238" name="Reshape_726_compressed" type="Const" version="opset1">
			<data element_type="f16" shape="1, 576, 1, 1" offset="14099768" size="1152" />
			<output>
				<port id="0" precision="FP16">
					<dim>1</dim>
					<dim>576</dim>
					<dim>1</dim>
					<dim>1</dim>
				</port>
			</output>
		</layer>
		<layer id="239" name="Reshape_726" type="Convert" version="opset1">
			<data destination_type="f32" />
			<rt_info>
				<attribute name="decompression" version="0" />
			</rt_info>
			<input>
				<port id="0" precision="FP16">
					<dim>1</dim>
					<dim>576</dim>
					<dim>1</dim>
					<dim>1</dim>
				</port>
			</input>
			<output>
				<port id="1" precision="FP32">
					<dim>1</dim>
					<dim>576</dim>
					<dim>1</dim>
					<dim>1</dim>
				</port>
			</output>
		</layer>
		<layer id="240" name="/model.7/conv/Conv" type="Add" version="opset1">
			<data auto_broadcast="numpy" />
			<input>
				<port id="0" precision="FP32">
					<dim>1</dim>
					<dim>576</dim>
					<dim>20</dim>
					<dim>20</dim>
				</port>
				<port id="1" precision="FP32">
					<dim>1</dim>
					<dim>576</dim>
					<dim>1</dim>
					<dim>1</dim>
				</port>
			</input>
			<output>
				<port id="2" precision="FP32" names="/model.7/conv/Conv_output_0">
					<dim>1</dim>
					<dim>576</dim>
					<dim>20</dim>
					<dim>20</dim>
				</port>
			</output>
		</layer>
		<layer id="241" name="/model.7/act/Mul" type="Swish" version="opset4">
			<input>
				<port id="0" precision="FP32">
					<dim>1</dim>
					<dim>576</dim>
					<dim>20</dim>
					<dim>20</dim>
				</port>
			</input>
			<output>
				<port id="1" precision="FP32" names="/model.7/act/Mul_output_0">
					<dim>1</dim>
					<dim>576</dim>
					<dim>20</dim>
					<dim>20</dim>
				</port>
			</output>
		</layer>
		<layer id="242" name="model.8.cv1.conv.weight_compressed" type="Const" version="opset1">
			<data element_type="f16" shape="576, 576, 1, 1" offset="14100920" size="663552" />
			<output>
				<port id="0" precision="FP16">
					<dim>576</dim>
					<dim>576</dim>
					<dim>1</dim>
					<dim>1</dim>
				</port>
			</output>
		</layer>
		<layer id="243" name="model.8.cv1.conv.weight" type="Convert" version="opset1">
			<data destination_type="f32" />
			<rt_info>
				<attribute name="decompression" version="0" />
			</rt_info>
			<input>
				<port id="0" precision="FP16">
					<dim>576</dim>
					<dim>576</dim>
					<dim>1</dim>
					<dim>1</dim>
				</port>
			</input>
			<output>
				<port id="1" precision="FP32" names="model.8.cv1.conv.weight">
					<dim>576</dim>
					<dim>576</dim>
					<dim>1</dim>
					<dim>1</dim>
				</port>
			</output>
		</layer>
		<layer id="244" name="/model.8/cv1/conv/Conv/WithoutBiases" type="Convolution" version="opset1">
			<data strides="1, 1" dilations="1, 1" pads_begin="0, 0" pads_end="0, 0" auto_pad="explicit" />
			<input>
				<port id="0" precision="FP32">
					<dim>1</dim>
					<dim>576</dim>
					<dim>20</dim>
					<dim>20</dim>
				</port>
				<port id="1" precision="FP32">
					<dim>576</dim>
					<dim>576</dim>
					<dim>1</dim>
					<dim>1</dim>
				</port>
			</input>
			<output>
				<port id="2" precision="FP32">
					<dim>1</dim>
					<dim>576</dim>
					<dim>20</dim>
					<dim>20</dim>
				</port>
			</output>
		</layer>
		<layer id="245" name="Reshape_743_compressed" type="Const" version="opset1">
			<data element_type="f16" shape="1, 576, 1, 1" offset="14764472" size="1152" />
			<output>
				<port id="0" precision="FP16">
					<dim>1</dim>
					<dim>576</dim>
					<dim>1</dim>
					<dim>1</dim>
				</port>
			</output>
		</layer>
		<layer id="246" name="Reshape_743" type="Convert" version="opset1">
			<data destination_type="f32" />
			<rt_info>
				<attribute name="decompression" version="0" />
			</rt_info>
			<input>
				<port id="0" precision="FP16">
					<dim>1</dim>
					<dim>576</dim>
					<dim>1</dim>
					<dim>1</dim>
				</port>
			</input>
			<output>
				<port id="1" precision="FP32">
					<dim>1</dim>
					<dim>576</dim>
					<dim>1</dim>
					<dim>1</dim>
				</port>
			</output>
		</layer>
		<layer id="247" name="/model.8/cv1/conv/Conv" type="Add" version="opset1">
			<data auto_broadcast="numpy" />
			<input>
				<port id="0" precision="FP32">
					<dim>1</dim>
					<dim>576</dim>
					<dim>20</dim>
					<dim>20</dim>
				</port>
				<port id="1" precision="FP32">
					<dim>1</dim>
					<dim>576</dim>
					<dim>1</dim>
					<dim>1</dim>
				</port>
			</input>
			<output>
				<port id="2" precision="FP32" names="/model.8/cv1/conv/Conv_output_0">
					<dim>1</dim>
					<dim>576</dim>
					<dim>20</dim>
					<dim>20</dim>
				</port>
			</output>
		</layer>
		<layer id="248" name="/model.8/cv1/act/Mul" type="Swish" version="opset4">
			<input>
				<port id="0" precision="FP32">
					<dim>1</dim>
					<dim>576</dim>
					<dim>20</dim>
					<dim>20</dim>
				</port>
			</input>
			<output>
				<port id="1" precision="FP32" names="/model.8/cv1/act/Mul_output_0">
					<dim>1</dim>
					<dim>576</dim>
					<dim>20</dim>
					<dim>20</dim>
				</port>
			</output>
		</layer>
		<layer id="249" name="Constant_749" type="Const" version="opset1">
			<data element_type="i64" shape="" offset="138048" size="8" />
			<output>
				<port id="0" precision="I64" />
			</output>
		</layer>
		<layer id="250" name="onnx::Split_286" type="Const" version="opset1">
			<data element_type="i64" shape="2" offset="14765624" size="16" />
			<output>
				<port id="0" precision="I64" names="onnx::Split_286">
					<dim>2</dim>
				</port>
			</output>
		</layer>
		<layer id="251" name="/model.8/Split" type="VariadicSplit" version="opset1">
			<input>
				<port id="0" precision="FP32">
					<dim>1</dim>
					<dim>576</dim>
					<dim>20</dim>
					<dim>20</dim>
				</port>
				<port id="1" precision="I64" />
				<port id="2" precision="I64">
					<dim>2</dim>
				</port>
			</input>
			<output>
				<port id="3" precision="FP32" names="/model.8/Split_output_0">
					<dim>1</dim>
					<dim>288</dim>
					<dim>20</dim>
					<dim>20</dim>
				</port>
				<port id="4" precision="FP32" names="/model.8/Split_output_1">
					<dim>1</dim>
					<dim>288</dim>
					<dim>20</dim>
					<dim>20</dim>
				</port>
			</output>
		</layer>
		<layer id="252" name="model.8.m.0.cv1.conv.weight_compressed" type="Const" version="opset1">
			<data element_type="f16" shape="288, 288, 3, 3" offset="14765640" size="1492992" />
			<output>
				<port id="0" precision="FP16">
					<dim>288</dim>
					<dim>288</dim>
					<dim>3</dim>
					<dim>3</dim>
				</port>
			</output>
		</layer>
		<layer id="253" name="model.8.m.0.cv1.conv.weight" type="Convert" version="opset1">
			<data destination_type="f32" />
			<rt_info>
				<attribute name="decompression" version="0" />
			</rt_info>
			<input>
				<port id="0" precision="FP16">
					<dim>288</dim>
					<dim>288</dim>
					<dim>3</dim>
					<dim>3</dim>
				</port>
			</input>
			<output>
				<port id="1" precision="FP32" names="model.8.m.0.cv1.conv.weight">
					<dim>288</dim>
					<dim>288</dim>
					<dim>3</dim>
					<dim>3</dim>
				</port>
			</output>
		</layer>
		<layer id="254" name="/model.8/m.0/cv1/conv/Conv/WithoutBiases" type="Convolution" version="opset1">
			<data strides="1, 1" dilations="1, 1" pads_begin="1, 1" pads_end="1, 1" auto_pad="explicit" />
			<input>
				<port id="0" precision="FP32">
					<dim>1</dim>
					<dim>288</dim>
					<dim>20</dim>
					<dim>20</dim>
				</port>
				<port id="1" precision="FP32">
					<dim>288</dim>
					<dim>288</dim>
					<dim>3</dim>
					<dim>3</dim>
				</port>
			</input>
			<output>
				<port id="2" precision="FP32">
					<dim>1</dim>
					<dim>288</dim>
					<dim>20</dim>
					<dim>20</dim>
				</port>
			</output>
		</layer>
		<layer id="255" name="Reshape_762_compressed" type="Const" version="opset1">
			<data element_type="f16" shape="1, 288, 1, 1" offset="16258632" size="576" />
			<output>
				<port id="0" precision="FP16">
					<dim>1</dim>
					<dim>288</dim>
					<dim>1</dim>
					<dim>1</dim>
				</port>
			</output>
		</layer>
		<layer id="256" name="Reshape_762" type="Convert" version="opset1">
			<data destination_type="f32" />
			<rt_info>
				<attribute name="decompression" version="0" />
			</rt_info>
			<input>
				<port id="0" precision="FP16">
					<dim>1</dim>
					<dim>288</dim>
					<dim>1</dim>
					<dim>1</dim>
				</port>
			</input>
			<output>
				<port id="1" precision="FP32">
					<dim>1</dim>
					<dim>288</dim>
					<dim>1</dim>
					<dim>1</dim>
				</port>
			</output>
		</layer>
		<layer id="257" name="/model.8/m.0/cv1/conv/Conv" type="Add" version="opset1">
			<data auto_broadcast="numpy" />
			<input>
				<port id="0" precision="FP32">
					<dim>1</dim>
					<dim>288</dim>
					<dim>20</dim>
					<dim>20</dim>
				</port>
				<port id="1" precision="FP32">
					<dim>1</dim>
					<dim>288</dim>
					<dim>1</dim>
					<dim>1</dim>
				</port>
			</input>
			<output>
				<port id="2" precision="FP32" names="/model.8/m.0/cv1/conv/Conv_output_0">
					<dim>1</dim>
					<dim>288</dim>
					<dim>20</dim>
					<dim>20</dim>
				</port>
			</output>
		</layer>
		<layer id="258" name="/model.8/m.0/cv1/act/Mul" type="Swish" version="opset4">
			<input>
				<port id="0" precision="FP32">
					<dim>1</dim>
					<dim>288</dim>
					<dim>20</dim>
					<dim>20</dim>
				</port>
			</input>
			<output>
				<port id="1" precision="FP32" names="/model.8/m.0/cv1/act/Mul_output_0">
					<dim>1</dim>
					<dim>288</dim>
					<dim>20</dim>
					<dim>20</dim>
				</port>
			</output>
		</layer>
		<layer id="259" name="model.8.m.0.cv2.conv.weight_compressed" type="Const" version="opset1">
			<data element_type="f16" shape="288, 288, 3, 3" offset="16259208" size="1492992" />
			<output>
				<port id="0" precision="FP16">
					<dim>288</dim>
					<dim>288</dim>
					<dim>3</dim>
					<dim>3</dim>
				</port>
			</output>
		</layer>
		<layer id="260" name="model.8.m.0.cv2.conv.weight" type="Convert" version="opset1">
			<data destination_type="f32" />
			<rt_info>
				<attribute name="decompression" version="0" />
			</rt_info>
			<input>
				<port id="0" precision="FP16">
					<dim>288</dim>
					<dim>288</dim>
					<dim>3</dim>
					<dim>3</dim>
				</port>
			</input>
			<output>
				<port id="1" precision="FP32" names="model.8.m.0.cv2.conv.weight">
					<dim>288</dim>
					<dim>288</dim>
					<dim>3</dim>
					<dim>3</dim>
				</port>
			</output>
		</layer>
		<layer id="261" name="/model.8/m.0/cv2/conv/Conv/WithoutBiases" type="Convolution" version="opset1">
			<data strides="1, 1" dilations="1, 1" pads_begin="1, 1" pads_end="1, 1" auto_pad="explicit" />
			<input>
				<port id="0" precision="FP32">
					<dim>1</dim>
					<dim>288</dim>
					<dim>20</dim>
					<dim>20</dim>
				</port>
				<port id="1" precision="FP32">
					<dim>288</dim>
					<dim>288</dim>
					<dim>3</dim>
					<dim>3</dim>
				</port>
			</input>
			<output>
				<port id="2" precision="FP32">
					<dim>1</dim>
					<dim>288</dim>
					<dim>20</dim>
					<dim>20</dim>
				</port>
			</output>
		</layer>
		<layer id="262" name="Reshape_779_compressed" type="Const" version="opset1">
			<data element_type="f16" shape="1, 288, 1, 1" offset="17752200" size="576" />
			<output>
				<port id="0" precision="FP16">
					<dim>1</dim>
					<dim>288</dim>
					<dim>1</dim>
					<dim>1</dim>
				</port>
			</output>
		</layer>
		<layer id="263" name="Reshape_779" type="Convert" version="opset1">
			<data destination_type="f32" />
			<rt_info>
				<attribute name="decompression" version="0" />
			</rt_info>
			<input>
				<port id="0" precision="FP16">
					<dim>1</dim>
					<dim>288</dim>
					<dim>1</dim>
					<dim>1</dim>
				</port>
			</input>
			<output>
				<port id="1" precision="FP32">
					<dim>1</dim>
					<dim>288</dim>
					<dim>1</dim>
					<dim>1</dim>
				</port>
			</output>
		</layer>
		<layer id="264" name="/model.8/m.0/cv2/conv/Conv" type="Add" version="opset1">
			<data auto_broadcast="numpy" />
			<input>
				<port id="0" precision="FP32">
					<dim>1</dim>
					<dim>288</dim>
					<dim>20</dim>
					<dim>20</dim>
				</port>
				<port id="1" precision="FP32">
					<dim>1</dim>
					<dim>288</dim>
					<dim>1</dim>
					<dim>1</dim>
				</port>
			</input>
			<output>
				<port id="2" precision="FP32" names="/model.8/m.0/cv2/conv/Conv_output_0">
					<dim>1</dim>
					<dim>288</dim>
					<dim>20</dim>
					<dim>20</dim>
				</port>
			</output>
		</layer>
		<layer id="265" name="/model.8/m.0/cv2/act/Mul" type="Swish" version="opset4">
			<input>
				<port id="0" precision="FP32">
					<dim>1</dim>
					<dim>288</dim>
					<dim>20</dim>
					<dim>20</dim>
				</port>
			</input>
			<output>
				<port id="1" precision="FP32" names="/model.8/m.0/cv2/act/Mul_output_0">
					<dim>1</dim>
					<dim>288</dim>
					<dim>20</dim>
					<dim>20</dim>
				</port>
			</output>
		</layer>
		<layer id="266" name="/model.8/m.0/Add" type="Add" version="opset1">
			<data auto_broadcast="numpy" />
			<input>
				<port id="0" precision="FP32">
					<dim>1</dim>
					<dim>288</dim>
					<dim>20</dim>
					<dim>20</dim>
				</port>
				<port id="1" precision="FP32">
					<dim>1</dim>
					<dim>288</dim>
					<dim>20</dim>
					<dim>20</dim>
				</port>
			</input>
			<output>
				<port id="2" precision="FP32" names="/model.8/m.0/Add_output_0">
					<dim>1</dim>
					<dim>288</dim>
					<dim>20</dim>
					<dim>20</dim>
				</port>
			</output>
		</layer>
		<layer id="267" name="model.8.m.1.cv1.conv.weight_compressed" type="Const" version="opset1">
			<data element_type="f16" shape="288, 288, 3, 3" offset="17752776" size="1492992" />
			<output>
				<port id="0" precision="FP16">
					<dim>288</dim>
					<dim>288</dim>
					<dim>3</dim>
					<dim>3</dim>
				</port>
			</output>
		</layer>
		<layer id="268" name="model.8.m.1.cv1.conv.weight" type="Convert" version="opset1">
			<data destination_type="f32" />
			<rt_info>
				<attribute name="decompression" version="0" />
			</rt_info>
			<input>
				<port id="0" precision="FP16">
					<dim>288</dim>
					<dim>288</dim>
					<dim>3</dim>
					<dim>3</dim>
				</port>
			</input>
			<output>
				<port id="1" precision="FP32" names="model.8.m.1.cv1.conv.weight">
					<dim>288</dim>
					<dim>288</dim>
					<dim>3</dim>
					<dim>3</dim>
				</port>
			</output>
		</layer>
		<layer id="269" name="/model.8/m.1/cv1/conv/Conv/WithoutBiases" type="Convolution" version="opset1">
			<data strides="1, 1" dilations="1, 1" pads_begin="1, 1" pads_end="1, 1" auto_pad="explicit" />
			<input>
				<port id="0" precision="FP32">
					<dim>1</dim>
					<dim>288</dim>
					<dim>20</dim>
					<dim>20</dim>
				</port>
				<port id="1" precision="FP32">
					<dim>288</dim>
					<dim>288</dim>
					<dim>3</dim>
					<dim>3</dim>
				</port>
			</input>
			<output>
				<port id="2" precision="FP32">
					<dim>1</dim>
					<dim>288</dim>
					<dim>20</dim>
					<dim>20</dim>
				</port>
			</output>
		</layer>
		<layer id="270" name="Reshape_797_compressed" type="Const" version="opset1">
			<data element_type="f16" shape="1, 288, 1, 1" offset="19245768" size="576" />
			<output>
				<port id="0" precision="FP16">
					<dim>1</dim>
					<dim>288</dim>
					<dim>1</dim>
					<dim>1</dim>
				</port>
			</output>
		</layer>
		<layer id="271" name="Reshape_797" type="Convert" version="opset1">
			<data destination_type="f32" />
			<rt_info>
				<attribute name="decompression" version="0" />
			</rt_info>
			<input>
				<port id="0" precision="FP16">
					<dim>1</dim>
					<dim>288</dim>
					<dim>1</dim>
					<dim>1</dim>
				</port>
			</input>
			<output>
				<port id="1" precision="FP32">
					<dim>1</dim>
					<dim>288</dim>
					<dim>1</dim>
					<dim>1</dim>
				</port>
			</output>
		</layer>
		<layer id="272" name="/model.8/m.1/cv1/conv/Conv" type="Add" version="opset1">
			<data auto_broadcast="numpy" />
			<input>
				<port id="0" precision="FP32">
					<dim>1</dim>
					<dim>288</dim>
					<dim>20</dim>
					<dim>20</dim>
				</port>
				<port id="1" precision="FP32">
					<dim>1</dim>
					<dim>288</dim>
					<dim>1</dim>
					<dim>1</dim>
				</port>
			</input>
			<output>
				<port id="2" precision="FP32" names="/model.8/m.1/cv1/conv/Conv_output_0">
					<dim>1</dim>
					<dim>288</dim>
					<dim>20</dim>
					<dim>20</dim>
				</port>
			</output>
		</layer>
		<layer id="273" name="/model.8/m.1/cv1/act/Mul" type="Swish" version="opset4">
			<input>
				<port id="0" precision="FP32">
					<dim>1</dim>
					<dim>288</dim>
					<dim>20</dim>
					<dim>20</dim>
				</port>
			</input>
			<output>
				<port id="1" precision="FP32" names="/model.8/m.1/cv1/act/Mul_output_0">
					<dim>1</dim>
					<dim>288</dim>
					<dim>20</dim>
					<dim>20</dim>
				</port>
			</output>
		</layer>
		<layer id="274" name="model.8.m.1.cv2.conv.weight_compressed" type="Const" version="opset1">
			<data element_type="f16" shape="288, 288, 3, 3" offset="19246344" size="1492992" />
			<output>
				<port id="0" precision="FP16">
					<dim>288</dim>
					<dim>288</dim>
					<dim>3</dim>
					<dim>3</dim>
				</port>
			</output>
		</layer>
		<layer id="275" name="model.8.m.1.cv2.conv.weight" type="Convert" version="opset1">
			<data destination_type="f32" />
			<rt_info>
				<attribute name="decompression" version="0" />
			</rt_info>
			<input>
				<port id="0" precision="FP16">
					<dim>288</dim>
					<dim>288</dim>
					<dim>3</dim>
					<dim>3</dim>
				</port>
			</input>
			<output>
				<port id="1" precision="FP32" names="model.8.m.1.cv2.conv.weight">
					<dim>288</dim>
					<dim>288</dim>
					<dim>3</dim>
					<dim>3</dim>
				</port>
			</output>
		</layer>
		<layer id="276" name="/model.8/m.1/cv2/conv/Conv/WithoutBiases" type="Convolution" version="opset1">
			<data strides="1, 1" dilations="1, 1" pads_begin="1, 1" pads_end="1, 1" auto_pad="explicit" />
			<input>
				<port id="0" precision="FP32">
					<dim>1</dim>
					<dim>288</dim>
					<dim>20</dim>
					<dim>20</dim>
				</port>
				<port id="1" precision="FP32">
					<dim>288</dim>
					<dim>288</dim>
					<dim>3</dim>
					<dim>3</dim>
				</port>
			</input>
			<output>
				<port id="2" precision="FP32">
					<dim>1</dim>
					<dim>288</dim>
					<dim>20</dim>
					<dim>20</dim>
				</port>
			</output>
		</layer>
		<layer id="277" name="Reshape_814_compressed" type="Const" version="opset1">
			<data element_type="f16" shape="1, 288, 1, 1" offset="20739336" size="576" />
			<output>
				<port id="0" precision="FP16">
					<dim>1</dim>
					<dim>288</dim>
					<dim>1</dim>
					<dim>1</dim>
				</port>
			</output>
		</layer>
		<layer id="278" name="Reshape_814" type="Convert" version="opset1">
			<data destination_type="f32" />
			<rt_info>
				<attribute name="decompression" version="0" />
			</rt_info>
			<input>
				<port id="0" precision="FP16">
					<dim>1</dim>
					<dim>288</dim>
					<dim>1</dim>
					<dim>1</dim>
				</port>
			</input>
			<output>
				<port id="1" precision="FP32">
					<dim>1</dim>
					<dim>288</dim>
					<dim>1</dim>
					<dim>1</dim>
				</port>
			</output>
		</layer>
		<layer id="279" name="/model.8/m.1/cv2/conv/Conv" type="Add" version="opset1">
			<data auto_broadcast="numpy" />
			<input>
				<port id="0" precision="FP32">
					<dim>1</dim>
					<dim>288</dim>
					<dim>20</dim>
					<dim>20</dim>
				</port>
				<port id="1" precision="FP32">
					<dim>1</dim>
					<dim>288</dim>
					<dim>1</dim>
					<dim>1</dim>
				</port>
			</input>
			<output>
				<port id="2" precision="FP32" names="/model.8/m.1/cv2/conv/Conv_output_0">
					<dim>1</dim>
					<dim>288</dim>
					<dim>20</dim>
					<dim>20</dim>
				</port>
			</output>
		</layer>
		<layer id="280" name="/model.8/m.1/cv2/act/Mul" type="Swish" version="opset4">
			<input>
				<port id="0" precision="FP32">
					<dim>1</dim>
					<dim>288</dim>
					<dim>20</dim>
					<dim>20</dim>
				</port>
			</input>
			<output>
				<port id="1" precision="FP32" names="/model.8/m.1/cv2/act/Mul_output_0">
					<dim>1</dim>
					<dim>288</dim>
					<dim>20</dim>
					<dim>20</dim>
				</port>
			</output>
		</layer>
		<layer id="281" name="/model.8/m.1/Add" type="Add" version="opset1">
			<data auto_broadcast="numpy" />
			<input>
				<port id="0" precision="FP32">
					<dim>1</dim>
					<dim>288</dim>
					<dim>20</dim>
					<dim>20</dim>
				</port>
				<port id="1" precision="FP32">
					<dim>1</dim>
					<dim>288</dim>
					<dim>20</dim>
					<dim>20</dim>
				</port>
			</input>
			<output>
				<port id="2" precision="FP32" names="/model.8/m.1/Add_output_0">
					<dim>1</dim>
					<dim>288</dim>
					<dim>20</dim>
					<dim>20</dim>
				</port>
			</output>
		</layer>
		<layer id="282" name="/model.8/Concat" type="Concat" version="opset1">
			<data axis="1" />
			<input>
				<port id="0" precision="FP32">
					<dim>1</dim>
					<dim>288</dim>
					<dim>20</dim>
					<dim>20</dim>
				</port>
				<port id="1" precision="FP32">
					<dim>1</dim>
					<dim>288</dim>
					<dim>20</dim>
					<dim>20</dim>
				</port>
				<port id="2" precision="FP32">
					<dim>1</dim>
					<dim>288</dim>
					<dim>20</dim>
					<dim>20</dim>
				</port>
				<port id="3" precision="FP32">
					<dim>1</dim>
					<dim>288</dim>
					<dim>20</dim>
					<dim>20</dim>
				</port>
			</input>
			<output>
				<port id="4" precision="FP32" names="/model.8/Concat_output_0">
					<dim>1</dim>
					<dim>1152</dim>
					<dim>20</dim>
					<dim>20</dim>
				</port>
			</output>
		</layer>
		<layer id="283" name="model.8.cv2.conv.weight_compressed" type="Const" version="opset1">
			<data element_type="f16" shape="576, 1152, 1, 1" offset="20739912" size="1327104" />
			<output>
				<port id="0" precision="FP16">
					<dim>576</dim>
					<dim>1152</dim>
					<dim>1</dim>
					<dim>1</dim>
				</port>
			</output>
		</layer>
		<layer id="284" name="model.8.cv2.conv.weight" type="Convert" version="opset1">
			<data destination_type="f32" />
			<rt_info>
				<attribute name="decompression" version="0" />
			</rt_info>
			<input>
				<port id="0" precision="FP16">
					<dim>576</dim>
					<dim>1152</dim>
					<dim>1</dim>
					<dim>1</dim>
				</port>
			</input>
			<output>
				<port id="1" precision="FP32" names="model.8.cv2.conv.weight">
					<dim>576</dim>
					<dim>1152</dim>
					<dim>1</dim>
					<dim>1</dim>
				</port>
			</output>
		</layer>
		<layer id="285" name="/model.8/cv2/conv/Conv/WithoutBiases" type="Convolution" version="opset1">
			<data strides="1, 1" dilations="1, 1" pads_begin="0, 0" pads_end="0, 0" auto_pad="explicit" />
			<input>
				<port id="0" precision="FP32">
					<dim>1</dim>
					<dim>1152</dim>
					<dim>20</dim>
					<dim>20</dim>
				</port>
				<port id="1" precision="FP32">
					<dim>576</dim>
					<dim>1152</dim>
					<dim>1</dim>
					<dim>1</dim>
				</port>
			</input>
			<output>
				<port id="2" precision="FP32">
					<dim>1</dim>
					<dim>576</dim>
					<dim>20</dim>
					<dim>20</dim>
				</port>
			</output>
		</layer>
		<layer id="286" name="Reshape_833_compressed" type="Const" version="opset1">
			<data element_type="f16" shape="1, 576, 1, 1" offset="22067016" size="1152" />
			<output>
				<port id="0" precision="FP16">
					<dim>1</dim>
					<dim>576</dim>
					<dim>1</dim>
					<dim>1</dim>
				</port>
			</output>
		</layer>
		<layer id="287" name="Reshape_833" type="Convert" version="opset1">
			<data destination_type="f32" />
			<rt_info>
				<attribute name="decompression" version="0" />
			</rt_info>
			<input>
				<port id="0" precision="FP16">
					<dim>1</dim>
					<dim>576</dim>
					<dim>1</dim>
					<dim>1</dim>
				</port>
			</input>
			<output>
				<port id="1" precision="FP32">
					<dim>1</dim>
					<dim>576</dim>
					<dim>1</dim>
					<dim>1</dim>
				</port>
			</output>
		</layer>
		<layer id="288" name="/model.8/cv2/conv/Conv" type="Add" version="opset1">
			<data auto_broadcast="numpy" />
			<input>
				<port id="0" precision="FP32">
					<dim>1</dim>
					<dim>576</dim>
					<dim>20</dim>
					<dim>20</dim>
				</port>
				<port id="1" precision="FP32">
					<dim>1</dim>
					<dim>576</dim>
					<dim>1</dim>
					<dim>1</dim>
				</port>
			</input>
			<output>
				<port id="2" precision="FP32" names="/model.8/cv2/conv/Conv_output_0">
					<dim>1</dim>
					<dim>576</dim>
					<dim>20</dim>
					<dim>20</dim>
				</port>
			</output>
		</layer>
		<layer id="289" name="/model.8/cv2/act/Mul" type="Swish" version="opset4">
			<input>
				<port id="0" precision="FP32">
					<dim>1</dim>
					<dim>576</dim>
					<dim>20</dim>
					<dim>20</dim>
				</port>
			</input>
			<output>
				<port id="1" precision="FP32" names="/model.8/cv2/act/Mul_output_0">
					<dim>1</dim>
					<dim>576</dim>
					<dim>20</dim>
					<dim>20</dim>
				</port>
			</output>
		</layer>
		<layer id="290" name="model.9.cv1.conv.weight_compressed" type="Const" version="opset1">
			<data element_type="f16" shape="288, 576, 1, 1" offset="22068168" size="331776" />
			<output>
				<port id="0" precision="FP16">
					<dim>288</dim>
					<dim>576</dim>
					<dim>1</dim>
					<dim>1</dim>
				</port>
			</output>
		</layer>
		<layer id="291" name="model.9.cv1.conv.weight" type="Convert" version="opset1">
			<data destination_type="f32" />
			<rt_info>
				<attribute name="decompression" version="0" />
			</rt_info>
			<input>
				<port id="0" precision="FP16">
					<dim>288</dim>
					<dim>576</dim>
					<dim>1</dim>
					<dim>1</dim>
				</port>
			</input>
			<output>
				<port id="1" precision="FP32" names="model.9.cv1.conv.weight">
					<dim>288</dim>
					<dim>576</dim>
					<dim>1</dim>
					<dim>1</dim>
				</port>
			</output>
		</layer>
		<layer id="292" name="/model.9/cv1/conv/Conv/WithoutBiases" type="Convolution" version="opset1">
			<data strides="1, 1" dilations="1, 1" pads_begin="0, 0" pads_end="0, 0" auto_pad="explicit" />
			<input>
				<port id="0" precision="FP32">
					<dim>1</dim>
					<dim>576</dim>
					<dim>20</dim>
					<dim>20</dim>
				</port>
				<port id="1" precision="FP32">
					<dim>288</dim>
					<dim>576</dim>
					<dim>1</dim>
					<dim>1</dim>
				</port>
			</input>
			<output>
				<port id="2" precision="FP32">
					<dim>1</dim>
					<dim>288</dim>
					<dim>20</dim>
					<dim>20</dim>
				</port>
			</output>
		</layer>
		<layer id="293" name="Reshape_850_compressed" type="Const" version="opset1">
			<data element_type="f16" shape="1, 288, 1, 1" offset="22399944" size="576" />
			<output>
				<port id="0" precision="FP16">
					<dim>1</dim>
					<dim>288</dim>
					<dim>1</dim>
					<dim>1</dim>
				</port>
			</output>
		</layer>
		<layer id="294" name="Reshape_850" type="Convert" version="opset1">
			<data destination_type="f32" />
			<rt_info>
				<attribute name="decompression" version="0" />
			</rt_info>
			<input>
				<port id="0" precision="FP16">
					<dim>1</dim>
					<dim>288</dim>
					<dim>1</dim>
					<dim>1</dim>
				</port>
			</input>
			<output>
				<port id="1" precision="FP32">
					<dim>1</dim>
					<dim>288</dim>
					<dim>1</dim>
					<dim>1</dim>
				</port>
			</output>
		</layer>
		<layer id="295" name="/model.9/cv1/conv/Conv" type="Add" version="opset1">
			<data auto_broadcast="numpy" />
			<input>
				<port id="0" precision="FP32">
					<dim>1</dim>
					<dim>288</dim>
					<dim>20</dim>
					<dim>20</dim>
				</port>
				<port id="1" precision="FP32">
					<dim>1</dim>
					<dim>288</dim>
					<dim>1</dim>
					<dim>1</dim>
				</port>
			</input>
			<output>
				<port id="2" precision="FP32" names="/model.9/cv1/conv/Conv_output_0">
					<dim>1</dim>
					<dim>288</dim>
					<dim>20</dim>
					<dim>20</dim>
				</port>
			</output>
		</layer>
		<layer id="296" name="/model.9/cv1/act/Mul" type="Swish" version="opset4">
			<input>
				<port id="0" precision="FP32">
					<dim>1</dim>
					<dim>288</dim>
					<dim>20</dim>
					<dim>20</dim>
				</port>
			</input>
			<output>
				<port id="1" precision="FP32" names="/model.9/cv1/act/Mul_output_0">
					<dim>1</dim>
					<dim>288</dim>
					<dim>20</dim>
					<dim>20</dim>
				</port>
			</output>
		</layer>
		<layer id="297" name="/model.9/m/MaxPool" type="MaxPool" version="opset8">
			<data strides="1, 1" dilations="1, 1" pads_begin="2, 2" pads_end="2, 2" kernel="5, 5" rounding_type="floor" auto_pad="explicit" index_element_type="i64" axis="0" />
			<input>
				<port id="0" precision="FP32">
					<dim>1</dim>
					<dim>288</dim>
					<dim>20</dim>
					<dim>20</dim>
				</port>
			</input>
			<output>
				<port id="1" precision="FP32" names="/model.9/m/MaxPool_output_0">
					<dim>1</dim>
					<dim>288</dim>
					<dim>20</dim>
					<dim>20</dim>
				</port>
				<port id="2" precision="I64">
					<dim>1</dim>
					<dim>288</dim>
					<dim>20</dim>
					<dim>20</dim>
				</port>
			</output>
		</layer>
		<layer id="298" name="/model.9/m_1/MaxPool" type="MaxPool" version="opset8">
			<data strides="1, 1" dilations="1, 1" pads_begin="2, 2" pads_end="2, 2" kernel="5, 5" rounding_type="floor" auto_pad="explicit" index_element_type="i64" axis="0" />
			<input>
				<port id="0" precision="FP32">
					<dim>1</dim>
					<dim>288</dim>
					<dim>20</dim>
					<dim>20</dim>
				</port>
			</input>
			<output>
				<port id="1" precision="FP32" names="/model.9/m_1/MaxPool_output_0">
					<dim>1</dim>
					<dim>288</dim>
					<dim>20</dim>
					<dim>20</dim>
				</port>
				<port id="2" precision="I64">
					<dim>1</dim>
					<dim>288</dim>
					<dim>20</dim>
					<dim>20</dim>
				</port>
			</output>
		</layer>
		<layer id="299" name="/model.9/m_2/MaxPool" type="MaxPool" version="opset8">
			<data strides="1, 1" dilations="1, 1" pads_begin="2, 2" pads_end="2, 2" kernel="5, 5" rounding_type="floor" auto_pad="explicit" index_element_type="i64" axis="0" />
			<input>
				<port id="0" precision="FP32">
					<dim>1</dim>
					<dim>288</dim>
					<dim>20</dim>
					<dim>20</dim>
				</port>
			</input>
			<output>
				<port id="1" precision="FP32" names="/model.9/m_2/MaxPool_output_0">
					<dim>1</dim>
					<dim>288</dim>
					<dim>20</dim>
					<dim>20</dim>
				</port>
				<port id="2" precision="I64">
					<dim>1</dim>
					<dim>288</dim>
					<dim>20</dim>
					<dim>20</dim>
				</port>
			</output>
		</layer>
		<layer id="300" name="/model.9/Concat" type="Concat" version="opset1">
			<data axis="1" />
			<input>
				<port id="0" precision="FP32">
					<dim>1</dim>
					<dim>288</dim>
					<dim>20</dim>
					<dim>20</dim>
				</port>
				<port id="1" precision="FP32">
					<dim>1</dim>
					<dim>288</dim>
					<dim>20</dim>
					<dim>20</dim>
				</port>
				<port id="2" precision="FP32">
					<dim>1</dim>
					<dim>288</dim>
					<dim>20</dim>
					<dim>20</dim>
				</port>
				<port id="3" precision="FP32">
					<dim>1</dim>
					<dim>288</dim>
					<dim>20</dim>
					<dim>20</dim>
				</port>
			</input>
			<output>
				<port id="4" precision="FP32" names="/model.9/Concat_output_0">
					<dim>1</dim>
					<dim>1152</dim>
					<dim>20</dim>
					<dim>20</dim>
				</port>
			</output>
		</layer>
		<layer id="301" name="model.9.cv2.conv.weight_compressed" type="Const" version="opset1">
			<data element_type="f16" shape="576, 1152, 1, 1" offset="22400520" size="1327104" />
			<output>
				<port id="0" precision="FP16">
					<dim>576</dim>
					<dim>1152</dim>
					<dim>1</dim>
					<dim>1</dim>
				</port>
			</output>
		</layer>
		<layer id="302" name="model.9.cv2.conv.weight" type="Convert" version="opset1">
			<data destination_type="f32" />
			<rt_info>
				<attribute name="decompression" version="0" />
			</rt_info>
			<input>
				<port id="0" precision="FP16">
					<dim>576</dim>
					<dim>1152</dim>
					<dim>1</dim>
					<dim>1</dim>
				</port>
			</input>
			<output>
				<port id="1" precision="FP32" names="model.9.cv2.conv.weight">
					<dim>576</dim>
					<dim>1152</dim>
					<dim>1</dim>
					<dim>1</dim>
				</port>
			</output>
		</layer>
		<layer id="303" name="/model.9/cv2/conv/Conv/WithoutBiases" type="Convolution" version="opset1">
			<data strides="1, 1" dilations="1, 1" pads_begin="0, 0" pads_end="0, 0" auto_pad="explicit" />
			<input>
				<port id="0" precision="FP32">
					<dim>1</dim>
					<dim>1152</dim>
					<dim>20</dim>
					<dim>20</dim>
				</port>
				<port id="1" precision="FP32">
					<dim>576</dim>
					<dim>1152</dim>
					<dim>1</dim>
					<dim>1</dim>
				</port>
			</input>
			<output>
				<port id="2" precision="FP32">
					<dim>1</dim>
					<dim>576</dim>
					<dim>20</dim>
					<dim>20</dim>
				</port>
			</output>
		</layer>
		<layer id="304" name="Reshape_871_compressed" type="Const" version="opset1">
			<data element_type="f16" shape="1, 576, 1, 1" offset="23727624" size="1152" />
			<output>
				<port id="0" precision="FP16">
					<dim>1</dim>
					<dim>576</dim>
					<dim>1</dim>
					<dim>1</dim>
				</port>
			</output>
		</layer>
		<layer id="305" name="Reshape_871" type="Convert" version="opset1">
			<data destination_type="f32" />
			<rt_info>
				<attribute name="decompression" version="0" />
			</rt_info>
			<input>
				<port id="0" precision="FP16">
					<dim>1</dim>
					<dim>576</dim>
					<dim>1</dim>
					<dim>1</dim>
				</port>
			</input>
			<output>
				<port id="1" precision="FP32">
					<dim>1</dim>
					<dim>576</dim>
					<dim>1</dim>
					<dim>1</dim>
				</port>
			</output>
		</layer>
		<layer id="306" name="/model.9/cv2/conv/Conv" type="Add" version="opset1">
			<data auto_broadcast="numpy" />
			<input>
				<port id="0" precision="FP32">
					<dim>1</dim>
					<dim>576</dim>
					<dim>20</dim>
					<dim>20</dim>
				</port>
				<port id="1" precision="FP32">
					<dim>1</dim>
					<dim>576</dim>
					<dim>1</dim>
					<dim>1</dim>
				</port>
			</input>
			<output>
				<port id="2" precision="FP32" names="/model.9/cv2/conv/Conv_output_0">
					<dim>1</dim>
					<dim>576</dim>
					<dim>20</dim>
					<dim>20</dim>
				</port>
			</output>
		</layer>
		<layer id="307" name="/model.9/cv2/act/Mul" type="Swish" version="opset4">
			<input>
				<port id="0" precision="FP32">
					<dim>1</dim>
					<dim>576</dim>
					<dim>20</dim>
					<dim>20</dim>
				</port>
			</input>
			<output>
				<port id="1" precision="FP32" names="/model.9/cv2/act/Mul_output_0">
					<dim>1</dim>
					<dim>576</dim>
					<dim>20</dim>
					<dim>20</dim>
				</port>
			</output>
		</layer>
		<layer id="308" name="/model.10/Constant_output_0" type="Const" version="opset1">
			<data element_type="f32" shape="4" offset="23728776" size="16" />
			<output>
				<port id="0" precision="FP32" names="/model.10/Constant_output_0">
					<dim>4</dim>
				</port>
			</output>
		</layer>
		<layer id="309" name="/model.10/Resize" type="Interpolate" version="opset11">
			<data mode="nearest" shape_calculation_mode="scales" coordinate_transformation_mode="asymmetric" nearest_mode="floor" antialias="false" pads_begin="0, 0, 0, 0" pads_end="0, 0, 0, 0" cube_coeff="-0.75" />
			<input>
				<port id="0" precision="FP32">
					<dim>1</dim>
					<dim>576</dim>
					<dim>20</dim>
					<dim>20</dim>
				</port>
				<port id="1" precision="FP32">
					<dim>4</dim>
				</port>
			</input>
			<output>
				<port id="2" precision="FP32" names="/model.10/Resize_output_0">
					<dim>1</dim>
					<dim>576</dim>
					<dim>40</dim>
					<dim>40</dim>
				</port>
			</output>
		</layer>
		<layer id="310" name="/model.11/Concat" type="Concat" version="opset1">
			<data axis="1" />
			<input>
				<port id="0" precision="FP32">
					<dim>1</dim>
					<dim>576</dim>
					<dim>40</dim>
					<dim>40</dim>
				</port>
				<port id="1" precision="FP32">
					<dim>1</dim>
					<dim>384</dim>
					<dim>40</dim>
					<dim>40</dim>
				</port>
			</input>
			<output>
				<port id="2" precision="FP32" names="/model.11/Concat_output_0">
					<dim>1</dim>
					<dim>960</dim>
					<dim>40</dim>
					<dim>40</dim>
				</port>
			</output>
		</layer>
		<layer id="311" name="model.12.cv1.conv.weight_compressed" type="Const" version="opset1">
			<data element_type="f16" shape="384, 960, 1, 1" offset="23728792" size="737280" />
			<output>
				<port id="0" precision="FP16">
					<dim>384</dim>
					<dim>960</dim>
					<dim>1</dim>
					<dim>1</dim>
				</port>
			</output>
		</layer>
		<layer id="312" name="model.12.cv1.conv.weight" type="Convert" version="opset1">
			<data destination_type="f32" />
			<rt_info>
				<attribute name="decompression" version="0" />
			</rt_info>
			<input>
				<port id="0" precision="FP16">
					<dim>384</dim>
…
		<edge from-layer="25" from-port="0" to-layer="26" to-port="2" />
		<edge from-layer="26" from-port="4" to-layer="29" to-port="0" />
		<edge from-layer="26" from-port="4" to-layer="41" to-port="0" />
		<edge from-layer="26" from-port="4" to-layer="57" to-port="1" />
		<edge from-layer="26" from-port="3" to-layer="57" to-port="0" />
		<edge from-layer="27" from-port="0" to-layer="28" to-port="0" />
		<edge from-layer="28" from-port="1" to-layer="29" to-port="1" />
		<edge from-layer="29" from-port="2" to-layer="32" to-port="0" />
		<edge from-layer="30" from-port="0" to-layer="31" to-port="0" />
		<edge from-layer="31" from-port="1" to-layer="32" to-port="1" />
		<edge from-layer="32" from-port="2" to-layer="33" to-port="0" />
		<edge from-layer="33" from-port="1" to-layer="36" to-port="0" />
		<edge from-layer="34" from-port="0" to-layer="35" to-port="0" />
		<edge from-layer="35" from-port="1" to-layer="36" to-port="1" />
		<edge from-layer="36" from-port="2" to-layer="39" to-port="0" />
		<edge from-layer="37" from-port="0" to-layer="38" to-port="0" />
		<edge from-layer="38" from-port="1" to-layer="39" to-port="1" />
		<edge from-layer="39" from-port="2" to-layer="40" to-port="0" />
		<edge from-layer="40" from-port="1" to-layer="41" to-port="1" />
		<edge from-layer="41" from-port="2" to-layer="44" to-port="0" />
		<edge from-layer="41" from-port="2" to-layer="57" to-port="2" />
		<edge from-layer="41" from-port="2" to-layer="56" to-port="0" />
		<edge from-layer="42" from-port="0" to-layer="43" to-port="0" />
		<edge from-layer="43" from-port="1" to-layer="44" to-port="1" />
		<edge from-layer="44" from-port="2" to-layer="47" to-port="0" />
		<edge from-layer="45" from-port="0" to-layer="46" to-port="0" />
		<edge from-layer="46" from-port="1" to-layer="47" to-port="1" />
		<edge from-layer="47" from-port="2" to-layer="48" to-port="0" />
		<edge from-layer="48" from-port="1" to-layer="51" to-port="0" />
		<edge from-layer="49" from-port="0" to-layer="50" to-port="0" />
		<edge from-layer="50" from-port="1" to-layer="51" to-port="1" />
		<edge from-layer="51" from-port="2" to-layer="54" to-port="0" />
		<edge from-layer="52" from-port="0" to-layer="53" to-port="0" />
		<edge from-layer="53" from-port="1" to-layer="54" to-port="1" />
		<edge from-layer="54" from-port="2" to-layer="55" to-port="0" />
		<edge from-layer="55" from-port="1" to-layer="56" to-port="1" />
		<edge from-layer="56" from-port="2" to-layer="57" to-port="3" />
		<edge from-layer="57" from-port="4" to-layer="60" to-port="0" />
		<edge from-layer="58" from-port="0" to-layer="59" to-port="0" />
		<edge from-layer="59" from-port="1" to-layer="60" to-port="1" />
		<edge from-layer="60" from-port="2" to-layer="63" to-port="0" />
		<edge from-layer="61" from-port="0" to-layer="62" to-port="0" />
		<edge from-layer="62" from-port="1" to-layer="63" to-port="1" />
		<edge from-layer="63" from-port="2" to-layer="64" to-port="0" />
		<edge from-layer="64" from-port="1" to-layer="67" to-port="0" />
		<edge from-layer="65" from-port="0" to-layer="66" to-port="0" />
		<edge from-layer="66" from-port="1" to-layer="67" to-port="1" />
		<edge from-layer="67" from-port="2" to-layer="70" to-port="0" />
		<edge from-layer="68" from-port="0" to-layer="69" to-port="0" />
		<edge from-layer="69" from-port="1" to-layer="70" to-port="1" />
		<edge from-layer="70" from-port="2" to-layer="71" to-port="0" />
		<edge from-layer="71" from-port="1" to-layer="74" to-port="0" />
		<edge from-layer="72" from-port="0" to-layer="73" to-port="0" />
		<edge from-layer="73" from-port="1" to-layer="74" to-port="1" />
		<edge from-layer="74" from-port="2" to-layer="77" to-port="0" />
		<edge from-layer="75" from-port="0" to-layer="76" to-port="0" />
		<edge from-layer="76" from-port="1" to-layer="77" to-port="1" />
		<edge from-layer="77" from-port="2" to-layer="78" to-port="0" />
		<edge from-layer="78" from-port="1" to-layer="81" to-port="0" />
		<edge from-layer="79" from-port="0" to-layer="81" to-port="1" />
		<edge from-layer="80" from-port="0" to-layer="81" to-port="2" />
		<edge from-layer="80" from-port="0" to-layer="366" to-port="2" />
		<edge from-layer="81" from-port="4" to-layer="96" to-port="0" />
		<edge from-layer="81" from-port="4" to-layer="142" to-port="1" />
		<edge from-layer="81" from-port="3" to-layer="142" to-port="0" />
		<edge from-layer="81" from-port="4" to-layer="84" to-port="0" />
		<edge from-layer="82" from-port="0" to-layer="83" to-port="0" />
		<edge from-layer="83" from-port="1" to-layer="84" to-port="1" />
		<edge from-layer="84" from-port="2" to-layer="87" to-port="0" />
		<edge from-layer="85" from-port="0" to-layer="86" to-port="0" />
		<edge from-layer="86" from-port="1" to-layer="87" to-port="1" />
		<edge from-layer="87" from-port="2" to-layer="88" to-port="0" />
		<edge from-layer="88" from-port="1" to-layer="91" to-port="0" />
		<edge from-layer="89" from-port="0" to-layer="90" to-port="0" />
		<edge from-layer="90" from-port="1" to-layer="91" to-port="1" />
		<edge from-layer="91" from-port="2" to-layer="94" to-port="0" />
		<edge from-layer="92" from-port="0" to-layer="93" to-port="0" />
		<edge from-layer="93" from-port="1" to-layer="94" to-port="1" />
		<edge from-layer="94" from-port="2" to-layer="95" to-port="0" />
		<edge from-layer="95" from-port="1" to-layer="96" to-port="1" />
		<edge from-layer="96" from-port="2" to-layer="142" to-port="2" />
		<edge from-layer="96" from-port="2" to-layer="111" to-port="0" />
		<edge from-layer="96" from-port="2" to-layer="99" to-port="0" />
		<edge from-layer="97" from-port="0" to-layer="98" to-port="0" />
		<edge from-layer="98" from-port="1" to-layer="99" to-port="1" />
		<edge from-layer="99" from-port="2" to-layer="102" to-port="0" />
		<edge from-layer="100" from-port="0" to-layer="101" to-port="0" />
		<edge from-layer="101" from-port="1" to-layer="102" to-port="1" />
		<edge from-layer="102" from-port="2" to-layer="103" to-port="0" />
		<edge from-layer="103" from-port="1" to-layer="106" to-port="0" />
		<edge from-layer="104" from-port="0" to-layer="105" to-port="0" />
		<edge from-layer="105" from-port="1" to-layer="106" to-port="1" />
		<edge from-layer="106" from-port="2" to-layer="109" to-port="0" />
		<edge from-layer="107" from-port="0" to-layer="108" to-port="0" />
		<edge from-layer="108" from-port="1" to-layer="109" to-port="1" />
		<edge from-layer="109" from-port="2" to-layer="110" to-port="0" />
		<edge from-layer="110" from-port="1" to-layer="111" to-port="1" />
		<edge from-layer="111" from-port="2" to-layer="114" to-port="0" />
		<edge from-layer="111" from-port="2" to-layer="142" to-port="3" />
		<edge from-layer="111" from-port="2" to-layer="126" to-port="0" />
		<edge from-layer="112" from-port="0" to-layer="113" to-port="0" />
		<edge from-layer="113" from-port="1" to-layer="114" to-port="1" />
		<edge from-layer="114" from-port="2" to-layer="117" to-port="0" />
		<edge from-layer="115" from-port="0" to-layer="116" to-port="0" />
		<edge from-layer="116" from-port="1" to-layer="117" to-port="1" />
		<edge from-layer="117" from-port="2" to-layer="118" to-port="0" />
		<edge from-layer="118" from-port="1" to-layer="121" to-port="0" />
		<edge from-layer="119" from-port="0" to-layer="120" to-port="0" />
		<edge from-layer="120" from-port="1" to-layer="121" to-port="1" />
		<edge from-layer="121" from-port="2" to-layer="124" to-port="0" />
		<edge from-layer="122" from-port="0" to-layer="123" to-port="0" />
		<edge from-layer="123" from-port="1" to-layer="124" to-port="1" />
		<edge from-layer="124" from-port="2" to-layer="125" to-port="0" />
		<edge from-layer="125" from-port="1" to-layer="126" to-port="1" />
		<edge from-layer="126" from-port="2" to-layer="129" to-port="0" />
		<edge from-layer="126" from-port="2" to-layer="142" to-port="4" />
		<edge from-layer="126" from-port="2" to-layer="141" to-port="0" />
		<edge from-layer="127" from-port="0" to-layer="128" to-port="0" />
		<edge from-layer="128" from-port="1" to-layer="129" to-port="1" />
		<edge from-layer="129" from-port="2" to-layer="132" to-port="0" />
		<edge from-layer="130" from-port="0" to-layer="131" to-port="0" />
		<edge from-layer="131" from-port="1" to-layer="132" to-port="1" />
		<edge from-layer="132" from-port="2" to-layer="133" to-port="0" />
		<edge from-layer="133" from-port="1" to-layer="136" to-port="0" />
		<edge from-layer="134" from-port="0" to-layer="135" to-port="0" />
		<edge from-layer="135" from-port="1" to-layer="136" to-port="1" />
		<edge from-layer="136" from-port="2" to-layer="139" to-port="0" />
		<edge from-layer="137" from-port="0" to-layer="138" to-port="0" />
		<edge from-layer="138" from-port="1" to-layer="139" to-port="1" />
		<edge from-layer="139" from-port="2" to-layer="140" to-port="0" />
		<edge from-layer="140" from-port="1" to-layer="141" to-port="1" />
		<edge from-layer="141" from-port="2" to-layer="142" to-port="5" />
		<edge from-layer="142" from-port="6" to-layer="145" to-port="0" />
		<edge from-layer="143" from-port="0" to-layer="144" to-port="0" />
		<edge from-layer="144" from-port="1" to-layer="145" to-port="1" />
		<edge from-layer="145" from-port="2" to-layer="148" to-port="0" />
		<edge from-layer="146" from-port="0" to-layer="147" to-port="0" />
		<edge from-layer="147" from-port="1" to-layer="148" to-port="1" />
		<edge from-layer="148" from-port="2" to-layer="149" to-port="0" />
		<edge from-layer="149" from-port="1" to-layer="152" to-port="0" />
		<edge from-layer="149" from-port="1" to-layer="357" to-port="1" />
		<edge from-layer="150" from-port="0" to-layer="151" to-port="0" />
		<edge from-layer="151" from-port="1" to-layer="152" to-port="1" />
		<edge from-layer="152" from-port="2" to-layer="155" to-port="0" />
		<edge from-layer="153" from-port="0" to-layer="154" to-port="0" />
		<edge from-layer="154" from-port="1" to-layer="155" to-port="1" />
		<edge from-layer="155" from-port="2" to-layer="156" to-port="0" />
		<edge from-layer="156" from-port="1" to-layer="159" to-port="0" />
		<edge from-layer="157" from-port="0" to-layer="158" to-port="0" />
		<edge from-layer="158" from-port="1" to-layer="159" to-port="1" />
		<edge from-layer="159" from-port="2" to-layer="162" to-port="0" />
		<edge from-layer="160" from-port="0" to-layer="161" to-port="0" />
		<edge from-layer="161" from-port="1" to-layer="162" to-port="1" />
		<edge from-layer="162" from-port="2" to-layer="163" to-port="0" />
		<edge from-layer="163" from-port="1" to-layer="166" to-port="0" />
		<edge from-layer="164" from-port="0" to-layer="166" to-port="1" />
		<edge from-layer="165" from-port="0" to-layer="462" to-port="2" />
		<edge from-layer="165" from-port="0" to-layer="166" to-port="2" />
		<edge from-layer="165" from-port="0" to-layer="319" to-port="2" />
		<edge from-layer="166" from-port="4" to-layer="169" to-port="0" />
		<edge from-layer="166" from-port="4" to-layer="181" to-port="0" />
		<edge from-layer="166" from-port="4" to-layer="227" to-port="1" />
		<edge from-layer="166" from-port="3" to-layer="227" to-port="0" />
		<edge from-layer="167" from-port="0" to-layer="168" to-port="0" />
		<edge from-layer="168" from-port="1" to-layer="169" to-port="1" />
		<edge from-layer="169" from-port="2" to-layer="172" to-port="0" />
		<edge from-layer="170" from-port="0" to-layer="171" to-port="0" />
		<edge from-layer="171" from-port="1" to-layer="172" to-port="1" />
		<edge from-layer="172" from-port="2" to-layer="173" to-port="0" />
		<edge from-layer="173" from-port="1" to-layer="176" to-port="0" />
		<edge from-layer="174" from-port="0" to-layer="175" to-port="0" />
		<edge from-layer="175" from-port="1" to-layer="176" to-port="1" />
		<edge from-layer="176" from-port="2" to-layer="179" to-port="0" />
		<edge from-layer="177" from-port="0" to-layer="178" to-port="0" />
		<edge from-layer="178" from-port="1" to-layer="179" to-port="1" />
		<edge from-layer="179" from-port="2" to-layer="180" to-port="0" />
		<edge from-layer="180" from-port="1" to-layer="181" to-port="1" />
		<edge from-layer="181" from-port="2" to-layer="227" to-port="2" />
		<edge from-layer="181" from-port="2" to-layer="184" to-port="0" />
		<edge from-layer="181" from-port="2" to-layer="196" to-port="0" />
		<edge from-layer="182" from-port="0" to-layer="183" to-port="0" />
		<edge from-layer="183" from-port="1" to-layer="184" to-port="1" />
		<edge from-layer="184" from-port="2" to-layer="187" to-port="0" />
		<edge from-layer="185" from-port="0" to-layer="186" to-port="0" />
		<edge from-layer="186" from-port="1" to-layer="187" to-port="1" />
		<edge from-layer="187" from-port="2" to-layer="188" to-port="0" />
		<edge from-layer="188" from-port="1" to-layer="191" to-port="0" />
		<edge from-layer="189" from-port="0" to-layer="190" to-port="0" />
		<edge from-layer="190" from-port="1" to-layer="191" to-port="1" />
		<edge from-layer="191" from-port="2" to-layer="194" to-port="0" />
		<edge from-layer="192" from-port="0" to-layer="193" to-port="0" />
		<edge from-layer="193" from-port="1" to-layer="194" to-port="1" />
		<edge from-layer="194" from-port="2" to-layer="195" to-port="0" />
		<edge from-layer="195" from-port="1" to-layer="196" to-port="1" />
		<edge from-layer="196" from-port="2" to-layer="199" to-port="0" />
		<edge from-layer="196" from-port="2" to-layer="211" to-port="0" />
		<edge from-layer="196" from-port="2" to-layer="227" to-port="3" />
		<edge from-layer="197" from-port="0" to-layer="198" to-port="0" />
		<edge from-layer="198" from-port="1" to-layer="199" to-port="1" />
		<edge from-layer="199" from-port="2" to-layer="202" to-port="0" />
		<edge from-layer="200" from-port="0" to-layer="201" to-port="0" />
		<edge from-layer="201" from-port="1" to-layer="202" to-port="1" />
		<edge from-layer="202" from-port="2" to-layer="203" to-port="0" />
		<edge from-layer="203" from-port="1" to-layer="206" to-port="0" />
		<edge from-layer="204" from-port="0" to-layer="205" to-port="0" />
		<edge from-layer="205" from-port="1" to-layer="206" to-port="1" />
		<edge from-layer="206" from-port="2" to-layer="209" to-port="0" />
		<edge from-layer="207" from-port="0" to-layer="208" to-port="0" />
		<edge from-layer="208" from-port="1" to-layer="209" to-port="1" />
		<edge from-layer="209" from-port="2" to-layer="210" to-port="0" />
		<edge from-layer="210" from-port="1" to-layer="211" to-port="1" />
		<edge from-layer="211" from-port="2" to-layer="226" to-port="0" />
		<edge from-layer="211" from-port="2" to-layer="227" to-port="4" />
		<edge from-layer="211" from-port="2" to-layer="214" to-port="0" />
		<edge from-layer="212" from-port="0" to-layer="213" to-port="0" />
		<edge from-layer="213" from-port="1" to-layer="214" to-port="1" />
		<edge from-layer="214" from-port="2" to-layer="217" to-port="0" />
		<edge from-layer="215" from-port="0" to-layer="216" to-port="0" />
		<edge from-layer="216" from-port="1" to-layer="217" to-port="1" />
		<edge from-layer="217" from-port="2" to-layer="218" to-port="0" />
		<edge from-layer="218" from-port="1" to-layer="221" to-port="0" />
		<edge from-layer="219" from-port="0" to-layer="220" to-port="0" />
		<edge from-layer="220" from-port="1" to-layer="221" to-port="1" />
		<edge from-layer="221" from-port="2" to-layer="224" to-port="0" />
		<edge from-layer="222" from-port="0" to-layer="223" to-port="0" />
		<edge from-layer="223" from-port="1" to-layer="224" to-port="1" />
		<edge from-layer="224" from-port="2" to-layer="225" to-port="0" />
		<edge from-layer="225" from-port="1" to-layer="226" to-port="1" />
		<edge from-layer="226" from-port="2" to-layer="227" to-port="5" />
		<edge from-layer="227" from-port="6" to-layer="230" to-port="0" />
		<edge from-layer="228" from-port="0" to-layer="229" to-port="0" />
		<edge from-layer="229" from-port="1" to-layer="230" to-port="1" />
		<edge from-layer="230" from-port="2" to-layer="233" to-port="0" />
		<edge from-layer="231" from-port="0" to-layer="232" to-port="0" />
		<edge from-layer="232" from-port="1" to-layer="233" to-port="1" />
		<edge from-layer="233" from-port="2" to-layer="234" to-port="0" />
		<edge from-layer="234" from-port="1" to-layer="237" to-port="0" />
		<edge from-layer="234" from-port="1" to-layer="310" to-port="1" />
		<edge from-layer="235" from-port="0" to-layer="236" to-port="0" />
		<edge from-layer="236" from-port="1" to-layer="237" to-port="1" />
		<edge from-layer="237" from-port="2" to-layer="240" to-port="0" />
		<edge from-layer="238" from-port="0" to-layer="239" to-port="0" />
		<edge from-layer="239" from-port="1" to-layer="240" to-port="1" />
		<edge from-layer="240" from-port="2" to-layer="241" to-port="0" />
		<edge from-layer="241" from-port="1" to-layer="244" to-port="0" />
		<edge from-layer="242" from-port="0" to-layer="243" to-port="0" />
		<edge from-layer="243" from-port="1" to-layer="244" to-port="1" />
		<edge from-layer="244" from-port="2" to-layer="247" to-port="0" />
		<edge from-layer="245" from-port="0" to-layer="246" to-port="0" />
		<edge from-layer="246" from-port="1" to-layer="247" to-port="1" />
		<edge from-layer="247" from-port="2" to-layer="248" to-port="0" />
		<edge from-layer="248" from-port="1" to-layer="251" to-port="0" />
		<edge from-layer="249" from-port="0" to-layer="251" to-port="1" />
		<edge from-layer="250" from-port="0" to-layer="557" to-port="2" />
		<edge from-layer="250" from-port="0" to-layer="251" to-port="2" />
		<edge from-layer="251" from-port="3" to-layer="282" to-port="0" />
		<edge from-layer="251" from-port="4" to-layer="282" to-port="1" />
		<edge from-layer="251" from-port="4" to-layer="254" to-port="0" />
		<edge from-layer="251" from-port="4" to-layer="266" to-port="0" />
		<edge from-layer="252" from-port="0" to-layer="253" to-port="0" />
		<edge from-layer="253" from-port="1" to-layer="254" to-port="1" />
		<edge from-layer="254" from-port="2" to-layer="257" to-port="0" />
		<edge from-layer="255" from-port="0" to-layer="256" to-port="0" />
		<edge from-layer="256" from-port="1" to-layer="257" to-port="1" />
		<edge from-layer="257" from-port="2" to-layer="258" to-port="0" />
		<edge from-layer="258" from-port="1" to-layer="261" to-port="0" />
		<edge from-layer="259" from-port="0" to-layer="260" to-port="0" />
		<edge from-layer="260" from-port="1" to-layer="261" to-port="1" />
		<edge from-layer="261" from-port="2" to-layer="264" to-port="0" />
		<edge from-layer="262" from-port="0" to-layer="263" to-port="0" />
		<edge from-layer="263" from-port="1" to-layer="264" to-port="1" />
		<edge from-layer="264" from-port="2" to-layer="265" to-port="0" />
		<edge from-layer="265" from-port="1" to-layer="266" to-port="1" />
		<edge from-layer="266" from-port="2" to-layer="269" to-port="0" />
		<edge from-layer="266" from-port="2" to-layer="282" to-port="2" />
		<edge from-layer="266" from-port="2" to-layer="281" to-port="0" />
		<edge from-layer="267" from-port="0" to-layer="268" to-port="0" />
		<edge from-layer="268" from-port="1" to-layer="269" to-port="1" />
		<edge from-layer="269" from-port="2" to-layer="272" to-port="0" />
		<edge from-layer="270" from-port="0" to-layer="271" to-port="0" />
		<edge from-layer="271" from-port="1" to-layer="272" to-port="1" />
		<edge from-layer="272" from-port="2" to-layer="273" to-port="0" />
		<edge from-layer="273" from-port="1" to-layer="276" to-port="0" />
		<edge from-layer="274" from-port="0" to-layer="275" to-port="0" />
		<edge from-layer="275" from-port="1" to-layer="276" to-port="1" />
		<edge from-layer="276" from-port="2" to-layer="279" to-port="0" />
		<edge from-layer="277" from-port="0" to-layer="278" to-port="0" />
		<edge from-layer="278" from-port="1" to-layer="279" to-port="1" />
		<edge from-layer="279" from-port="2" to-layer="280" to-port="0" />
		<edge from-layer="280" from-port="1" to-layer="281" to-port="1" />
		<edge from-layer="281" from-port="2" to-layer="282" to-port="3" />
		<edge from-layer="282" from-port="4" to-layer="285" to-port="0" />
		<edge from-layer="283" from-port="0" to-layer="284" to-port="0" />
		<edge from-layer="284" from-port="1" to-layer="285" to-port="1" />
		<edge from-layer="285" from-port="2" to-layer="288" to-port="0" />
		<edge from-layer="286" from-port="0" to-layer="287" to-port="0" />
		<edge from-layer="287" from-port="1" to-layer="288" to-port="1" />
		<edge from-layer="288" from-port="2" to-layer="289" to-port="0" />
		<edge from-layer="289" from-port="1" to-layer="292" to-port="0" />
		<edge from-layer="290" from-port="0" to-layer="291" to-port="0" />
		<edge from-layer="291" from-port="1" to-layer="292" to-port="1" />
		<edge from-layer="292" from-port="2" to-layer="295" to-port="0" />
		<edge from-layer="293" from-port="0" to-layer="294" to-port="0" />
		<edge from-layer="294" from-port="1" to-layer="295" to-port="1" />
		<edge from-layer="295" from-port="2" to-layer="296" to-port="0" />
		<edge from-layer="296" from-port="1" to-layer="297" to-port="0" />
		<edge from-layer="296" from-port="1" to-layer="300" to-port="0" />
		<edge from-layer="297" from-port="1" to-layer="298" to-port="0" />
		<edge from-layer="297" from-port="1" to-layer="300" to-port="1" />
		<edge from-layer="298" from-port="1" to-layer="299" to-port="0" />
		<edge from-layer="298" from-port="1" to-layer="300" to-port="2" />
		<edge from-layer="299" from-port="1" to-layer="300" to-port="3" />
		<edge from-layer="300" from-port="4" to-layer="303" to-port="0" />
		<edge from-layer="301" from-port="0" to-layer="302" to-port="0" />
		<edge from-layer="302" from-port="1" to-layer="303" to-port="1" />
		<edge from-layer="303" from-port="2" to-layer="306" to-port="0" />
		<edge from-layer="304" from-port="0" to-layer="305" to-port="0" />
		<edge from-layer="305" from-port="1" to-layer="306" to-port="1" />
		<edge from-layer="306" from-port="2" to-layer="307" to-port="0" />
		<edge from-layer="307" from-port="1" to-layer="309" to-port="0" />
		<edge from-layer="307" from-port="1" to-layer="548" to-port="1" />
		<edge from-layer="308" from-port="0" to-layer="356" to-port="1" />
		<edge from-layer="308" from-port="0" to-layer="309" to-port="1" />
		<edge from-layer="309" from-port="2" to-layer="310" to-port="0" />
		<edge from-layer="310" from-port="2" to-layer="313" to-port="0" />
		<edge from-layer="311" from-port="0" to-layer="312" to-port="0" />
		<edge from-layer="312" from-port="1" to-layer="313" to-port="1" />
		<edge from-layer="313" from-port="2" to-layer="316" to-port="0" />
		<edge from-layer="314" from-port="0" to-layer="315" to-port="0" />
		<edge from-layer="315" from-port="1" to-layer="316" to-port="1" />
		<edge from-layer="316" from-port="2" to-layer="317" to-port="0" />
		<edge from-layer="317" from-port="1" to-layer="319" to-port="0" />
		<edge from-layer="318" from-port="0" to-layer="319" to-port="1" />
		<edge from-layer="319" from-port="4" to-layer="322" to-port="0" />
		<edge from-layer="319" from-port="4" to-layer="348" to-port="1" />
		<edge from-layer="319" from-port="3" to-layer="348" to-port="0" />
		<edge from-layer="320" from-port="0" to-layer="321" to-port="0" />
		<edge from-layer="321" from-port="1" to-layer="322" to-port="1" />
		<edge from-layer="322" from-port="2" to-layer="325" to-port="0" />
		<edge from-layer="323" from-port="0" to-layer="324" to-port="0" />
		<edge from-layer="324" from-port="1" to-layer="325" to-port="1" />
		<edge from-layer="325" from-port="2" to-layer="326" to-port="0" />
		<edge from-layer="326" from-port="1" to-layer="329" to-port="0" />
		<edge from-layer="327" from-port="0" to-layer="328" to-port="0" />
		<edge from-layer="328" from-port="1" to-layer="329" to-port="1" />
		<edge from-layer="329" from-port="2" to-layer="332" to-port="0" />
		<edge from-layer="330" from-port="0" to-layer="331" to-port="0" />
		<edge from-layer="331" from-port="1" to-layer="332" to-port="1" />
		<edge from-layer="332" from-port="2" to-layer="333" to-port="0" />
		<edge from-layer="333" from-port="1" to-layer="336" to-port="0" />
		<edge from-layer="333" from-port="1" to-layer="348" to-port="2" />
		<edge from-layer="334" from-port="0" to-layer="335" to-port="0" />
		<edge from-layer="335" from-port="1" to-layer="336" to-port="1" />
		<edge from-layer="336" from-port="2" to-layer="339" to-port="0" />
		<edge from-layer="337" from-port="0" to-layer="338" to-port="0" />
		<edge from-layer="338" from-port="1" to-layer="339" to-port="1" />
		<edge from-layer="339" from-port="2" to-layer="340" to-port="0" />
		<edge from-layer="340" from-port="1" to-layer="343" to-port="0" />
		<edge from-layer="341" from-port="0" to-layer="342" to-port="0" />
		<edge from-layer="342" from-port="1" to-layer="343" to-port="1" />
		<edge from-layer="343" from-port="2" to-layer="346" to-port="0" />
		<edge from-layer="344" from-port="0" to-layer="345" to-port="0" />
		<edge from-layer="345" from-port="1" to-layer="346" to-port="1" />
		<edge from-layer="346" from-port="2" to-layer="347" to-port="0" />
		<edge from-layer="347" from-port="1" to-layer="348" to-port="3" />
		<edge from-layer="348" from-port="4" to-layer="351" to-port="0" />
		<edge from-layer="349" from-port="0" to-layer="350" to-port="0" />
		<edge from-layer="350" from-port="1" to-layer="351" to-port="1" />
		<edge from-layer="351" from-port="2" to-layer="354" to-port="0" />
		<edge from-layer="352" from-port="0" to-layer="353" to-port="0" />
		<edge from-layer="353" from-port="1" to-layer="354" to-port="1" />
		<edge from-layer="354" from-port="2" to-layer="355" to-port="0" />
		<edge from-layer="355" from-port="1" to-layer="356" to-port="0" />
		<edge from-layer="355" from-port="1" to-layer="453" to-port="1" />
		<edge from-layer="356" from-port="2" to-layer="357" to-port="0" />
		<edge from-layer="357" from-port="2" to-layer="360" to-port="0" />
		<edge from-layer="358" from-port="0" to-layer="359" to-port="0" />
		<edge from-layer="359" from-port="1" to-layer="360" to-port="1" />
		<edge from-layer="360" from-port="2" to-layer="363" to-port="0" />
		<edge from-layer="361" from-port="0" to-layer="362" to-port="0" />
		<edge from-layer="362" from-port="1" to-layer="363" to-port="1" />
		<edge from-layer="363" from-port="2" to-layer="364" to-port="0" />
		<edge from-layer="364" from-port="1" to-layer="366" to-port="0" />
		<edge from-layer="365" from-port="0" to-layer="366" to-port="1" />
		<edge from-layer="366" from-port="4" to-layer="369" to-port="0" />
		<edge from-layer="366" from-port="4" to-layer="395" to-port="1" />
		<edge from-layer="366" from-port="3" to-layer="395" to-port="0" />
		<edge from-layer="367" from-port="0" to-layer="368" to-port="0" />
		<edge from-layer="368" from-port="1" to-layer="369" to-port="1" />
		<edge from-layer="369" from-port="2" to-layer="372" to-port="0" />
		<edge from-layer="370" from-port="0" to-layer="371" to-port="0" />
		<edge from-layer="371" from-port="1" to-layer="372" to-port="1" />
		<edge from-layer="372" from-port="2" to-layer="373" to-port="0" />
		<edge from-layer="373" from-port="1" to-layer="376" to-port="0" />
		<edge from-layer="374" from-port="0" to-layer="375" to-port="0" />
		<edge from-layer="375" from-port="1" to-layer="376" to-port="1" />
		<edge from-layer="376" from-port="2" to-layer="379" to-port="0" />
		<edge from-layer="377" from-port="0" to-layer="378" to-port="0" />
		<edge from-layer="378" from-port="1" to-layer="379" to-port="1" />
		<edge from-layer="379" from-port="2" to-layer="380" to-port="0" />
		<edge from-layer="380" from-port="1" to-layer="383" to-port="0" />
		<edge from-layer="380" from-port="1" to-layer="395" to-port="2" />
		<edge from-layer="381" from-port="0" to-layer="382" to-port="0" />
		<edge from-layer="382" from-port="1" to-layer="383" to-port="1" />
		<edge from-layer="383" from-port="2" to-layer="386" to-port="0" />
		<edge from-layer="384" from-port="0" to-layer="385" to-port="0" />
		<edge from-layer="385" from-port="1" to-layer="386" to-port="1" />
		<edge from-layer="386" from-port="2" to-layer="387" to-port="0" />
		<edge from-layer="387" from-port="1" to-layer="390" to-port="0" />
		<edge from-layer="388" from-port="0" to-layer="389" to-port="0" />
		<edge from-layer="389" from-port="1" to-layer="390" to-port="1" />
		<edge from-layer="390" from-port="2" to-layer="393" to-port="0" />
		<edge from-layer="391" from-port="0" to-layer="392" to-port="0" />
		<edge from-layer="392" from-port="1" to-layer="393" to-port="1" />
		<edge from-layer="393" from-port="2" to-layer="394" to-port="0" />
		<edge from-layer="394" from-port="1" to-layer="395" to-port="3" />
		<edge from-layer="395" from-port="4" to-layer="398" to-port="0" />
		<edge from-layer="396" from-port="0" to-layer="397" to-port="0" />
		<edge from-layer="397" from-port="1" to-layer="398" to-port="1" />
		<edge from-layer="398" from-port="2" to-layer="401" to-port="0" />
		<edge from-layer="399" from-port="0" to-layer="400" to-port="0" />
		<edge from-layer="400" from-port="1" to-layer="401" to-port="1" />
		<edge from-layer="401" from-port="2" to-layer="402" to-port="0" />
		<edge from-layer="402" from-port="1" to-layer="405" to-port="0" />
		<edge from-layer="402" from-port="1" to-layer="448" to-port="0" />
		<edge from-layer="402" from-port="1" to-layer="425" to-port="0" />
		<edge from-layer="403" from-port="0" to-layer="404" to-port="0" />
		<edge from-layer="404" from-port="1" to-layer="405" to-port="1" />
		<edge from-layer="405" from-port="2" to-layer="408" to-port="0" />
		<edge from-layer="406" from-port="0" to-layer="407" to-port="0" />
		<edge from-layer="407" from-port="1" to-layer="408" to-port="1" />
		<edge from-layer="408" from-port="2" to-layer="409" to-port="0" />
		<edge from-layer="409" from-port="1" to-layer="412" to-port="0" />
		<edge from-layer="410" from-port="0" to-layer="411" to-port="0" />
		<edge from-layer="411" from-port="1" to-layer="412" to-port="1" />
		<edge from-layer="412" from-port="2" to-layer="415" to-port="0" />
		<edge from-layer="413" from-port="0" to-layer="414" to-port="0" />
		<edge from-layer="414" from-port="1" to-layer="415" to-port="1" />
		<edge from-layer="415" from-port="2" to-layer="416" to-port="0" />
		<edge from-layer="416" from-port="1" to-layer="419" to-port="0" />
		<edge from-layer="417" from-port="0" to-layer="418" to-port="0" />
		<edge from-layer="418" from-port="1" to-layer="419" to-port="1" />
		<edge from-layer="419" from-port="2" to-layer="422" to-port="0" />
		<edge from-layer="420" from-port="0" to-layer="421" to-port="0" />
		<edge from-layer="421" from-port="1" to-layer="422" to-port="1" />
		<edge from-layer="422" from-port="2" to-layer="443" to-port="0" />
		<edge from-layer="423" from-port="0" to-layer="424" to-port="0" />
		<edge from-layer="424" from-port="1" to-layer="425" to-port="1" />
		<edge from-layer="425" from-port="2" to-layer="428" to-port="0" />
		<edge from-layer="426" from-port="0" to-layer="427" to-port="0" />
		<edge from-layer="427" from-port="1" to-layer="428" to-port="1" />
		<edge from-layer="428" from-port="2" to-layer="429" to-port="0" />
		<edge from-layer="429" from-port="1" to-layer="432" to-port="0" />
		<edge from-layer="430" from-port="0" to-layer="431" to-port="0" />
		<edge from-layer="431" from-port="1" to-layer="432" to-port="1" />
		<edge from-layer="432" from-port="2" to-layer="435" to-port="0" />
		<edge from-layer="433" from-port="0" to-layer="434" to-port="0" />
		<edge from-layer="434" from-port="1" to-layer="435" to-port="1" />
		<edge from-layer="435" from-port="2" to-layer="436" to-port="0" />
		<edge from-layer="436" from-port="1" to-layer="439" to-port="0" />
		<edge from-layer="437" from-port="0" to-layer="438" to-port="0" />
		<edge from-layer="438" from-port="1" to-layer="439" to-port="1" />
		<edge from-layer="439" from-port="2" to-layer="442" to-port="0" />
		<edge from-layer="440" from-port="0" to-layer="441" to-port="0" />
		<edge from-layer="441" from-port="1" to-layer="442" to-port="1" />
		<edge from-layer="442" from-port="2" to-layer="443" to-port="1" />
		<edge from-layer="443" from-port="2" to-layer="445" to-port="0" />
		<edge from-layer="444" from-port="0" to-layer="445" to-port="1" />
		<edge from-layer="444" from-port="0" to-layer="635" to-port="1" />
		<edge from-layer="444" from-port="0" to-layer="540" to-port="1" />
		<edge from-layer="445" from-port="2" to-layer="636" to-port="0" />
		<edge from-layer="446" from-port="0" to-layer="447" to-port="0" />
		<edge from-layer="447" from-port="1" to-layer="448" to-port="1" />
		<edge from-layer="448" from-port="2" to-layer="451" to-port="0" />
		<edge from-layer="449" from-port="0" to-layer="450" to-port="0" />
		<edge from-layer="450" from-port="1" to-layer="451" to-port="1" />
		<edge from-layer="451" from-port="2" to-layer="452" to-port="0" />
		<edge from-layer="452" from-port="1" to-layer="453" to-port="0" />
		<edge from-layer="453" from-port="2" to-layer="456" to-port="0" />
		<edge from-layer="454" from-port="0" to-layer="455" to-port="0" />
		<edge from-layer="455" from-port="1" to-layer="456" to-port="1" />
		<edge from-layer="456" from-port="2" to-layer="459" to-port="0" />
		<edge from-layer="457" from-port="0" to-layer="458" to-port="0" />
		<edge from-layer="458" from-port="1" to-layer="459" to-port="1" />
		<edge from-layer="459" from-port="2" to-layer="460" to-port="0" />
		<edge from-layer="460" from-port="1" to-layer="462" to-port="0" />
		<edge from-layer="461" from-port="0" to-layer="462" to-port="1" />
		<edge from-layer="462" from-port="4" to-layer="465" to-port="0" />
		<edge from-layer="462" from-port="4" to-layer="491" to-port="1" />
		<edge from-layer="462" from-port="3" to-layer="491" to-port="0" />
		<edge from-layer="463" from-port="0" to-layer="464" to-port="0" />
		<edge from-layer="464" from-port="1" to-layer="465" to-port="1" />
		<edge from-layer="465" from-port="2" to-layer="468" to-port="0" />
		<edge from-layer="466" from-port="0" to-layer="467" to-port="0" />
		<edge from-layer="467" from-port="1" to-layer="468" to-port="1" />
		<edge from-layer="468" from-port="2" to-layer="469" to-port="0" />
		<edge from-layer="469" from-port="1" to-layer="472" to-port="0" />
		<edge from-layer="470" from-port="0" to-layer="471" to-port="0" />
		<edge from-layer="471" from-port="1" to-layer="472" to-port="1" />
		<edge from-layer="472" from-port="2" to-layer="475" to-port="0" />
		<edge from-layer="473" from-port="0" to-layer="474" to-port="0" />
		<edge from-layer="474" from-port="1" to-layer="475" to-port="1" />
		<edge from-layer="475" from-port="2" to-layer="476" to-port="0" />
		<edge from-layer="476" from-port="1" to-layer="479" to-port="0" />
		<edge from-layer="476" from-port="1" to-layer="491" to-port="2" />
		<edge from-layer="477" from-port="0" to-layer="478" to-port="0" />
		<edge from-layer="478" from-port="1" to-layer="479" to-port="1" />
		<edge from-layer="479" from-port="2" to-layer="482" to-port="0" />
		<edge from-layer="480" from-port="0" to-layer="481" to-port="0" />
		<edge from-layer="481" from-port="1" to-layer="482" to-port="1" />
		<edge from-layer="482" from-port="2" to-layer="483" to-port="0" />
		<edge from-layer="483" from-port="1" to-layer="486" to-port="0" />
		<edge from-layer="484" from-port="0" to-layer="485" to-port="0" />
		<edge from-layer="485" from-port="1" to-layer="486" to-port="1" />
		<edge from-layer="486" from-port="2" to-layer="489" to-port="0" />
		<edge from-layer="487" from-port="0" to-layer="488" to-port="0" />
		<edge from-layer="488" from-port="1" to-layer="489" to-port="1" />
		<edge from-layer="489" from-port="2" to-layer="490" to-port="0" />
		<edge from-layer="490" from-port="1" to-layer="491" to-port="3" />
		<edge from-layer="491" from-port="4" to-layer="494" to-port="0" />
		<edge from-layer="492" from-port="0" to-layer="493" to-port="0" />
		<edge from-layer="493" from-port="1" to-layer="494" to-port="1" />
		<edge from-layer="494" from-port="2" to-layer="497" to-port="0" />
		<edge from-layer="495" from-port="0" to-layer="496" to-port="0" />
		<edge from-layer="496" from-port="1" to-layer="497" to-port="1" />
		<edge from-layer="497" from-port="2" to-layer="498" to-port="0" />
		<edge from-layer="498" from-port="1" to-layer="521" to-port="0" />
		<edge from-layer="498" from-port="1" to-layer="501" to-port="0" />
		<edge from-layer="498" from-port="1" to-layer="543" to-port="0" />
		<edge from-layer="499" from-port="0" to-layer="500" to-port="0" />
		<edge from-layer="500" from-port="1" to-layer="501" to-port="1" />
		<edge from-layer="501" from-port="2" to-layer="504" to-port="0" />
		<edge from-layer="502" from-port="0" to-layer="503" to-port="0" />
		<edge from-layer="503" from-port="1" to-layer="504" to-port="1" />
		<edge from-layer="504" from-port="2" to-layer="505" to-port="0" />
		<edge from-layer="505" from-port="1" to-layer="508" to-port="0" />
		<edge from-layer="506" from-port="0" to-layer="507" to-port="0" />
		<edge from-layer="507" from-port="1" to-layer="508" to-port="1" />
		<edge from-layer="508" from-port="2" to-layer="511" to-port="0" />
		<edge from-layer="509" from-port="0" to-layer="510" to-port="0" />
		<edge from-layer="510" from-port="1" to-layer="511" to-port="1" />
		<edge from-layer="511" from-port="2" to-layer="512" to-port="0" />
		<edge from-layer="512" from-port="1" to-layer="515" to-port="0" />
		<edge from-layer="513" from-port="0" to-layer="514" to-port="0" />
		<edge from-layer="514" from-port="1" to-layer="515" to-port="1" />
		<edge from-layer="515" from-port="2" to-layer="518" to-port="0" />
		<edge from-layer="516" from-port="0" to-layer="517" to-port="0" />
		<edge from-layer="517" from-port="1" to-layer="518" to-port="1" />
		<edge from-layer="518" from-port="2" to-layer="539" to-port="0" />
		<edge from-layer="519" from-port="0" to-layer="520" to-port="0" />
		<edge from-layer="520" from-port="1" to-layer="521" to-port="1" />
		<edge from-layer="521" from-port="2" to-layer="524" to-port="0" />
		<edge from-layer="522" from-port="0" to-layer="523" to-port="0" />
		<edge from-layer="523" from-port="1" to-layer="524" to-port="1" />
		<edge from-layer="524" from-port="2" to-layer="525" to-port="0" />
		<edge from-layer="525" from-port="1" to-layer="528" to-port="0" />
		<edge from-layer="526" from-port="0" to-layer="527" to-port="0" />
		<edge from-layer="527" from-port="1" to-layer="528" to-port="1" />
		<edge from-layer="528" from-port="2" to-layer="531" to-port="0" />
		<edge from-layer="529" from-port="0" to-layer="530" to-port="0" />
		<edge from-layer="530" from-port="1" to-layer="531" to-port="1" />
		<edge from-layer="531" from-port="2" to-layer="532" to-port="0" />
		<edge from-layer="532" from-port="1" to-layer="535" to-port="0" />
		<edge from-layer="533" from-port="0" to-layer="534" to-port="0" />
		<edge from-layer="534" from-port="1" to-layer="535" to-port="1" />
		<edge from-layer="535" from-port="2" to-layer="538" to-port="0" />
		<edge from-layer="536" from-port="0" to-layer="537" to-port="0" />
		<edge from-layer="537" from-port="1" to-layer="538" to-port="1" />
		<edge from-layer="538" from-port="2" to-layer="539" to-port="1" />
		<edge from-layer="539" from-port="2" to-layer="540" to-port="0" />
		<edge from-layer="540" from-port="2" to-layer="636" to-port="1" />
		<edge from-layer="541" from-port="0" to-layer="542" to-port="0" />
		<edge from-layer="542" from-port="1" to-layer="543" to-port="1" />
		<edge from-layer="543" from-port="2" to-layer="546" to-port="0" />
		<edge from-layer="544" from-port="0" to-layer="545" to-port="0" />
		<edge from-layer="545" from-port="1" to-layer="546" to-port="1" />
		<edge from-layer="546" from-port="2" to-layer="547" to-port="0" />
		<edge from-layer="547" from-port="1" to-layer="548" to-port="0" />
		<edge from-layer="548" from-port="2" to-layer="551" to-port="0" />
		<edge from-layer="549" from-port="0" to-layer="550" to-port="0" />
		<edge from-layer="550" from-port="1" to-layer="551" to-port="1" />
		<edge from-layer="551" from-port="2" to-layer="554" to-port="0" />
		<edge from-layer="552" from-port="0" to-layer="553" to-port="0" />
		<edge from-layer="553" from-port="1" to-layer="554" to-port="1" />
		<edge from-layer="554" from-port="2" to-layer="555" to-port="0" />
		<edge from-layer="555" from-port="1" to-layer="557" to-port="0" />
		<edge from-layer="556" from-port="0" to-layer="557" to-port="1" />
		<edge from-layer="557" from-port="4" to-layer="560" to-port="0" />
		<edge from-layer="557" from-port="4" to-layer="586" to-port="1" />
		<edge from-layer="557" from-port="3" to-layer="586" to-port="0" />
		<edge from-layer="558" from-port="0" to-layer="559" to-port="0" />
		<edge from-layer="559" from-port="1" to-layer="560" to-port="1" />
		<edge from-layer="560" from-port="2" to-layer="563" to-port="0" />
		<edge from-layer="561" from-port="0" to-layer="562" to-port="0" />
		<edge from-layer="562" from-port="1" to-layer="563" to-port="1" />
		<edge from-layer="563" from-port="2" to-layer="564" to-port="0" />
		<edge from-layer="564" from-port="1" to-layer="567" to-port="0" />
		<edge from-layer="565" from-port="0" to-layer="566" to-port="0" />
		<edge from-layer="566" from-port="1" to-layer="567" to-port="1" />
		<edge from-layer="567" from-port="2" to-layer="570" to-port="0" />
		<edge from-layer="568" from-port="0" to-layer="569" to-port="0" />
		<edge from-layer="569" from-port="1" to-layer="570" to-port="1" />
		<edge from-layer="570" from-port="2" to-layer="571" to-port="0" />
		<edge from-layer="571" from-port="1" to-layer="574" to-port="0" />
		<edge from-layer="571" from-port="1" to-layer="586" to-port="2" />
		<edge from-layer="572" from-port="0" to-layer="573" to-port="0" />
		<edge from-layer="573" from-port="1" to-layer="574" to-port="1" />
		<edge from-layer="574" from-port="2" to-layer="577" to-port="0" />
		<edge from-layer="575" from-port="0" to-layer="576" to-port="0" />
		<edge from-layer="576" from-port="1" to-layer="577" to-port="1" />
		<edge from-layer="577" from-port="2" to-layer="578" to-port="0" />
		<edge from-layer="578" from-port="1" to-layer="581" to-port="0" />
		<edge from-layer="579" from-port="0" to-layer="580" to-port="0" />
		<edge from-layer="580" from-port="1" to-layer="581" to-port="1" />
		<edge from-layer="581" from-port="2" to-layer="584" to-port="0" />
		<edge from-layer="582" from-port="0" to-layer="583" to-port="0" />
		<edge from-layer="583" from-port="1" to-layer="584" to-port="1" />
		<edge from-layer="584" from-port="2" to-layer="585" to-port="0" />
		<edge from-layer="585" from-port="1" to-layer="586" to-port="3" />
		<edge from-layer="586" from-port="4" to-layer="589" to-port="0" />
		<edge from-layer="587" from-port="0" to-layer="588" to-port="0" />
		<edge from-layer="588" from-port="1" to-layer="589" to-port="1" />
		<edge from-layer="589" from-port="2" to-layer="592" to-port="0" />
		<edge from-layer="590" from-port="0" to-layer="591" to-port="0" />
		<edge from-layer="591" from-port="1" to-layer="592" to-port="1" />
		<edge from-layer="592" from-port="2" to-layer="593" to-port="0" />
		<edge from-layer="593" from-port="1" to-layer="596" to-port="0" />
		<edge from-layer="593" from-port="1" to-layer="616" to-port="0" />
		<edge from-layer="594" from-port="0" to-layer="595" to-port="0" />
		<edge from-layer="595" from-port="1" to-layer="596" to-port="1" />
		<edge from-layer="596" from-port="2" to-layer="599" to-port="0" />
		<edge from-layer="597" from-port="0" to-layer="598" to-port="0" />
		<edge from-layer="598" from-port="1" to-layer="599" to-port="1" />
		<edge from-layer="599" from-port="2" to-layer="600" to-port="0" />
		<edge from-layer="600" from-port="1" to-layer="603" to-port="0" />
		<edge from-layer="601" from-port="0" to-layer="602" to-port="0" />
		<edge from-layer="602" from-port="1" to-layer="603" to-port="1" />
		<edge from-layer="603" from-port="2" to-layer="606" to-port="0" />
		<edge from-layer="604" from-port="0" to-layer="605" to-port="0" />
		<edge from-layer="605" from-port="1" to-layer="606" to-port="1" />
		<edge from-layer="606" from-port="2" to-layer="607" to-port="0" />
		<edge from-layer="607" from-port="1" to-layer="610" to-port="0" />
		<edge from-layer="608" from-port="0" to-layer="609" to-port="0" />
		<edge from-layer="609" from-port="1" to-layer="610" to-port="1" />
		<edge from-layer="610" from-port="2" to-layer="613" to-port="0" />
		<edge from-layer="611" from-port="0" to-layer="612" to-port="0" />
		<edge from-layer="612" from-port="1" to-layer="613" to-port="1" />
		<edge from-layer="613" from-port="2" to-layer="634" to-port="0" />
		<edge from-layer="614" from-port="0" to-layer="615" to-port="0" />
		<edge from-layer="615" from-port="1" to-layer="616" to-port="1" />
		<edge from-layer="616" from-port="2" to-layer="619" to-port="0" />
		<edge from-layer="617" from-port="0" to-layer="618" to-port="0" />
		<edge from-layer="618" from-port="1" to-layer="619" to-port="1" />
		<edge from-layer="619" from-port="2" to-layer="620" to-port="0" />
		<edge from-layer="620" from-port="1" to-layer="623" to-port="0" />
		<edge from-layer="621" from-port="0" to-layer="622" to-port="0" />
		<edge from-layer="622" from-port="1" to-layer="623" to-port="1" />
		<edge from-layer="623" from-port="2" to-layer="626" to-port="0" />
		<edge from-layer="624" from-port="0" to-layer="625" to-port="0" />
		<edge from-layer="625" from-port="1" to-layer="626" to-port="1" />
		<edge from-layer="626" from-port="2" to-layer="627" to-port="0" />
		<edge from-layer="627" from-port="1" to-layer="630" to-port="0" />
		<edge from-layer="628" from-port="0" to-layer="629" to-port="0" />
		<edge from-layer="629" from-port="1" to-layer="630" to-port="1" />
		<edge from-layer="630" from-port="2" to-layer="633" to-port="0" />
		<edge from-layer="631" from-port="0" to-layer="632" to-port="0" />
		<edge from-layer="632" from-port="1" to-layer="633" to-port="1" />
		<edge from-layer="633" from-port="2" to-layer="634" to-port="1" />
		<edge from-layer="634" from-port="2" to-layer="635" to-port="0" />
		<edge from-layer="635" from-port="2" to-layer="636" to-port="2" />
		<edge from-layer="636" from-port="3" to-layer="639" to-port="0" />
		<edge from-layer="637" from-port="0" to-layer="639" to-port="1" />
		<edge from-layer="638" from-port="0" to-layer="639" to-port="2" />
		<edge from-layer="639" from-port="3" to-layer="641" to-port="0" />
		<edge from-layer="639" from-port="4" to-layer="671" to-port="0" />
		<edge from-layer="640" from-port="0" to-layer="641" to-port="1" />
		<edge from-layer="641" from-port="2" to-layer="643" to-port="0" />
		<edge from-layer="642" from-port="0" to-layer="643" to-port="1" />
		<edge from-layer="643" from-port="2" to-layer="644" to-port="0" />
		<edge from-layer="644" from-port="1" to-layer="647" to-port="0" />
		<edge from-layer="645" from-port="0" to-layer="646" to-port="0" />
		<edge from-layer="646" from-port="1" to-layer="647" to-port="1" />
		<edge from-layer="647" from-port="2" to-layer="649" to-port="0" />
		<edge from-layer="648" from-port="0" to-layer="649" to-port="1" />
		<edge from-layer="649" from-port="2" to-layer="653" to-port="0" />
		<edge from-layer="649" from-port="2" to-layer="660" to-port="0" />
		<edge from-layer="650" from-port="0" to-layer="653" to-port="1" />
		<edge from-layer="651" from-port="0" to-layer="653" to-port="2" />
		<edge from-layer="652" from-port="0" to-layer="653" to-port="3" />
		<edge from-layer="653" from-port="4" to-layer="654" to-port="1" />
		<edge from-layer="654" from-port="2" to-layer="666" to-port="1" />
		<edge from-layer="654" from-port="2" to-layer="662" to-port="0" />
		<edge from-layer="655" from-port="0" to-layer="656" to-port="0" />
		<edge from-layer="656" from-port="1" to-layer="661" to-port="0" />
		<edge from-layer="657" from-port="0" to-layer="660" to-port="1" />
		<edge from-layer="658" from-port="0" to-layer="660" to-port="2" />
		<edge from-layer="659" from-port="0" to-layer="660" to-port="3" />
		<edge from-layer="660" from-port="4" to-layer="661" to-port="1" />
		<edge from-layer="661" from-port="2" to-layer="666" to-port="0" />
		<edge from-layer="661" from-port="2" to-layer="662" to-port="1" />
		<edge from-layer="662" from-port="2" to-layer="665" to-port="0" />
		<edge from-layer="663" from-port="0" to-layer="664" to-port="0" />
		<edge from-layer="664" from-port="1" to-layer="665" to-port="1" />
		<edge from-layer="665" from-port="2" to-layer="667" to-port="0" />
		<edge from-layer="666" from-port="2" to-layer="667" to-port="1" />
		<edge from-layer="667" from-port="2" to-layer="670" to-port="0" />
		<edge from-layer="668" from-port="0" to-layer="669" to-port="0" />
		<edge from-layer="669" from-port="1" to-layer="670" to-port="1" />
		<edge from-layer="670" from-port="2" to-layer="672" to-port="0" />
		<edge from-layer="671" from-port="1" to-layer="672" to-port="1" />
		<edge from-layer="672" from-port="2" to-layer="673" to-port="0" />
	</edges>
	<rt_info>
		<MO_version value="2023.1.0-12185-9e6b00e51cd-releases/2023/1" />
		<Runtime_version value="2023.1.0-12185-9e6b00e51cd-releases/2023/1" />
		<conversion_parameters>
			<input_model value="DIR/best.onnx" />
			<is_python_api_used value="False" />
			<output_dir value="/Users/panyiming/WeChatProjects/miniprogram-1/backend/assets/openvino_model" />
		</conversion_parameters>
		<framework>
			<args value="{'batch': 1, 'half': False, 'dynamic': False, 'simplify': True, 'opset': None, 'nms': False}" />
			<author value="Ultralytics" />
			<batch value="1" />
			<channels value="3" />
			<date value="2025-04-29T17:41:24.868402" />
			<description value="Ultralytics best model trained on /home/dan/Documents/graduate_he/dataset/data.yaml" />
			<docs value="https://docs.ultralytics.com" />
			<imgsz value="[640, 640]" />
			<license value="AGPL-3.0 License (https://ultralytics.com/license)" />
			<names value="{0: '100-_ripeness', 1: '50-_ripeness', 2: '75-_ripeness', 3: 'rotten_apple'}" />
			<stride value="32" />
			<task value="detect" />
			<version value="8.3.119" />
		</framework>
		<legacy_frontend value="False" />
	</rt_info>
</net>
